<?xml version="1.0"?>
<net name="TensorFlow_Frontend_IR" version="11">
	<layers>
		<layer id="0" name="keras_tensor" type="Parameter" version="opset1">
			<data shape="?,3000,1" element_type="f32" />
			<output>
				<port id="0" precision="FP32" names="keras_tensor">
					<dim>-1</dim>
					<dim>3000</dim>
					<dim>1</dim>
				</port>
			</output>
		</layer>
		<layer id="1" name="Constant_325" type="Const" version="opset1">
			<data element_type="i32" shape="" offset="0" size="4" />
			<output>
				<port id="0" precision="I32" />
			</output>
		</layer>
		<layer id="2" name="sequential_1/bidirectional_1/forward_lstm_1/while/LogicalAnd" type="Const" version="opset1">
			<data element_type="boolean" shape="" offset="4" size="1" />
			<output>
				<port id="0" precision="BOOL" />
			</output>
		</layer>
		<layer id="3" name="sequential_1/bidirectional_1/forward_lstm_1/while/loop_counter" type="Const" version="opset1">
			<data element_type="i32" shape="" offset="5" size="4" />
			<output>
				<port id="0" precision="I32" />
			</output>
		</layer>
		<layer id="4" name="sequential_1/bidirectional_1/forward_lstm_1/time" type="Const" version="opset1">
			<data element_type="i32" shape="" offset="5" size="4" />
			<output>
				<port id="0" precision="I32" />
			</output>
		</layer>
		<layer id="5" name="sequential_1/bidirectional_1/forward_lstm_1/TensorArrayV2_1_compressed" type="Const" version="opset1">
			<data element_type="f16" shape="1, 1, 1" offset="9" size="2" />
			<output>
				<port id="0" precision="FP16">
					<dim>1</dim>
					<dim>1</dim>
					<dim>1</dim>
				</port>
			</output>
		</layer>
		<layer id="6" name="sequential_1/bidirectional_1/forward_lstm_1/TensorArrayV2_1" type="Convert" version="opset1">
			<data destination_type="f32" />
			<rt_info>
				<attribute name="decompression" version="0" />
			</rt_info>
			<input>
				<port id="0" precision="FP16">
					<dim>1</dim>
					<dim>1</dim>
					<dim>1</dim>
				</port>
			</input>
			<output>
				<port id="1" precision="FP32">
					<dim>1</dim>
					<dim>1</dim>
					<dim>1</dim>
				</port>
			</output>
		</layer>
		<layer id="7" name="sequential_1/bidirectional_1/forward_lstm_1/zeros/Const_compressed" type="Const" version="opset1">
			<data element_type="f16" shape="" offset="9" size="2" />
			<output>
				<port id="0" precision="FP16" />
			</output>
		</layer>
		<layer id="8" name="sequential_1/bidirectional_1/forward_lstm_1/zeros/Const" type="Convert" version="opset1">
			<data destination_type="f32" />
			<rt_info>
				<attribute name="decompression" version="0" />
			</rt_info>
			<input>
				<port id="0" precision="FP16" />
			</input>
			<output>
				<port id="1" precision="FP32" />
			</output>
		</layer>
		<layer id="9" name="Constant_2161" type="Const" version="opset1">
			<data element_type="i64" shape="3" offset="11" size="24" />
			<output>
				<port id="0" precision="I64">
					<dim>3</dim>
				</port>
			</output>
		</layer>
		<layer id="10" name="Transpose_2162" type="Transpose" version="opset1">
			<input>
				<port id="0" precision="FP32">
					<dim>-1</dim>
					<dim>3000</dim>
					<dim>1</dim>
				</port>
				<port id="1" precision="I64">
					<dim>3</dim>
				</port>
			</input>
			<output>
				<port id="2" precision="FP32">
					<dim>-1</dim>
					<dim>1</dim>
					<dim>3000</dim>
				</port>
			</output>
		</layer>
		<layer id="11" name="Constant_2163" type="Const" version="opset1">
			<data element_type="i32" shape="1" offset="35" size="4" />
			<output>
				<port id="0" precision="I32">
					<dim>1</dim>
				</port>
			</output>
		</layer>
		<layer id="12" name="Transpose_104" type="Unsqueeze" version="opset1">
			<input>
				<port id="0" precision="FP32">
					<dim>-1</dim>
					<dim>1</dim>
					<dim>3000</dim>
				</port>
				<port id="1" precision="I32">
					<dim>1</dim>
				</port>
			</input>
			<output>
				<port id="2" precision="FP32">
					<dim>-1</dim>
					<dim>1</dim>
					<dim>1</dim>
					<dim>3000</dim>
				</port>
			</output>
		</layer>
		<layer id="13" name="Transpose_106_compressed" type="Const" version="opset1">
			<data element_type="f16" shape="64, 1, 1, 3" offset="39" size="384" />
			<output>
				<port id="0" precision="FP16">
					<dim>64</dim>
					<dim>1</dim>
					<dim>1</dim>
					<dim>3</dim>
				</port>
			</output>
		</layer>
		<layer id="14" name="Transpose_106" type="Convert" version="opset1">
			<data destination_type="f32" />
			<rt_info>
				<attribute name="decompression" version="0" />
			</rt_info>
			<input>
				<port id="0" precision="FP16">
					<dim>64</dim>
					<dim>1</dim>
					<dim>1</dim>
					<dim>3</dim>
				</port>
			</input>
			<output>
				<port id="1" precision="FP32">
					<dim>64</dim>
					<dim>1</dim>
					<dim>1</dim>
					<dim>3</dim>
				</port>
			</output>
		</layer>
		<layer id="15" name="Convolution_107" type="Convolution" version="opset1">
			<data strides="1, 1" dilations="1, 1" pads_begin="0, 0" pads_end="0, 0" auto_pad="valid" />
			<input>
				<port id="0" precision="FP32">
					<dim>-1</dim>
					<dim>1</dim>
					<dim>1</dim>
					<dim>3000</dim>
				</port>
				<port id="1" precision="FP32">
					<dim>64</dim>
					<dim>1</dim>
					<dim>1</dim>
					<dim>3</dim>
				</port>
			</input>
			<output>
				<port id="2" precision="FP32">
					<dim>-1</dim>
					<dim>64</dim>
					<dim>1</dim>
					<dim>2998</dim>
				</port>
			</output>
		</layer>
		<layer id="16" name="Constant_1717" type="Const" version="opset1">
			<data element_type="i32" shape="1" offset="35" size="4" />
			<output>
				<port id="0" precision="I32">
					<dim>1</dim>
				</port>
			</output>
		</layer>
		<layer id="17" name="Transpose_1719" type="Squeeze" version="opset1">
			<input>
				<port id="0" precision="FP32">
					<dim>-1</dim>
					<dim>64</dim>
					<dim>1</dim>
					<dim>2998</dim>
				</port>
				<port id="1" precision="I32">
					<dim>1</dim>
				</port>
			</input>
			<output>
				<port id="2" precision="FP32">
					<dim>-1</dim>
					<dim>64</dim>
					<dim>2998</dim>
				</port>
			</output>
		</layer>
		<layer id="18" name="Transpose_1723_compressed" type="Const" version="opset1">
			<data element_type="f16" shape="1, 64, 1" offset="423" size="128" />
			<output>
				<port id="0" precision="FP16">
					<dim>1</dim>
					<dim>64</dim>
					<dim>1</dim>
				</port>
			</output>
		</layer>
		<layer id="19" name="Transpose_1723" type="Convert" version="opset1">
			<data destination_type="f32" />
			<rt_info>
				<attribute name="decompression" version="0" />
			</rt_info>
			<input>
				<port id="0" precision="FP16">
					<dim>1</dim>
					<dim>64</dim>
					<dim>1</dim>
				</port>
			</input>
			<output>
				<port id="1" precision="FP32">
					<dim>1</dim>
					<dim>64</dim>
					<dim>1</dim>
				</port>
			</output>
		</layer>
		<layer id="20" name="Transpose_1725" type="Add" version="opset1">
			<data auto_broadcast="numpy" />
			<input>
				<port id="0" precision="FP32">
					<dim>-1</dim>
					<dim>64</dim>
					<dim>2998</dim>
				</port>
				<port id="1" precision="FP32">
					<dim>1</dim>
					<dim>64</dim>
					<dim>1</dim>
				</port>
			</input>
			<output>
				<port id="2" precision="FP32">
					<dim>-1</dim>
					<dim>64</dim>
					<dim>2998</dim>
				</port>
			</output>
		</layer>
		<layer id="21" name="Transpose_1727" type="ReLU" version="opset1">
			<input>
				<port id="0" precision="FP32">
					<dim>-1</dim>
					<dim>64</dim>
					<dim>2998</dim>
				</port>
			</input>
			<output>
				<port id="1" precision="FP32">
					<dim>-1</dim>
					<dim>64</dim>
					<dim>2998</dim>
				</port>
			</output>
		</layer>
		<layer id="22" name="Transpose_1731_compressed" type="Const" version="opset1">
			<data element_type="f16" shape="1, 64, 1" offset="551" size="128" />
			<output>
				<port id="0" precision="FP16">
					<dim>1</dim>
					<dim>64</dim>
					<dim>1</dim>
				</port>
			</output>
		</layer>
		<layer id="23" name="Transpose_1731" type="Convert" version="opset1">
			<data destination_type="f32" />
			<rt_info>
				<attribute name="decompression" version="0" />
			</rt_info>
			<input>
				<port id="0" precision="FP16">
					<dim>1</dim>
					<dim>64</dim>
					<dim>1</dim>
				</port>
			</input>
			<output>
				<port id="1" precision="FP32">
					<dim>1</dim>
					<dim>64</dim>
					<dim>1</dim>
				</port>
			</output>
		</layer>
		<layer id="24" name="Transpose_1733" type="Multiply" version="opset1">
			<data auto_broadcast="numpy" />
			<input>
				<port id="0" precision="FP32">
					<dim>-1</dim>
					<dim>64</dim>
					<dim>2998</dim>
				</port>
				<port id="1" precision="FP32">
					<dim>1</dim>
					<dim>64</dim>
					<dim>1</dim>
				</port>
			</input>
			<output>
				<port id="2" precision="FP32">
					<dim>-1</dim>
					<dim>64</dim>
					<dim>2998</dim>
				</port>
			</output>
		</layer>
		<layer id="25" name="Transpose_1737_compressed" type="Const" version="opset1">
			<data element_type="f16" shape="1, 64, 1" offset="679" size="128" />
			<output>
				<port id="0" precision="FP16">
					<dim>1</dim>
					<dim>64</dim>
					<dim>1</dim>
				</port>
			</output>
		</layer>
		<layer id="26" name="Transpose_1737" type="Convert" version="opset1">
			<data destination_type="f32" />
			<rt_info>
				<attribute name="decompression" version="0" />
			</rt_info>
			<input>
				<port id="0" precision="FP16">
					<dim>1</dim>
					<dim>64</dim>
					<dim>1</dim>
				</port>
			</input>
			<output>
				<port id="1" precision="FP32">
					<dim>1</dim>
					<dim>64</dim>
					<dim>1</dim>
				</port>
			</output>
		</layer>
		<layer id="27" name="Transpose_1739" type="Add" version="opset1">
			<data auto_broadcast="numpy" />
			<input>
				<port id="0" precision="FP32">
					<dim>-1</dim>
					<dim>64</dim>
					<dim>2998</dim>
				</port>
				<port id="1" precision="FP32">
					<dim>1</dim>
					<dim>64</dim>
					<dim>1</dim>
				</port>
			</input>
			<output>
				<port id="2" precision="FP32">
					<dim>-1</dim>
					<dim>64</dim>
					<dim>2998</dim>
				</port>
			</output>
		</layer>
		<layer id="28" name="sequential_1/max_pooling1d_1/MaxPool1d/ExpandDims/dim" type="Const" version="opset1">
			<data element_type="i32" shape="" offset="807" size="4" />
			<output>
				<port id="0" precision="I32" />
			</output>
		</layer>
		<layer id="29" name="Transpose_1742" type="Unsqueeze" version="opset1">
			<input>
				<port id="0" precision="FP32">
					<dim>-1</dim>
					<dim>64</dim>
					<dim>2998</dim>
				</port>
				<port id="1" precision="I32" />
			</input>
			<output>
				<port id="2" precision="FP32">
					<dim>-1</dim>
					<dim>1</dim>
					<dim>64</dim>
					<dim>2998</dim>
				</port>
			</output>
		</layer>
		<layer id="30" name="Constant_4091" type="Const" version="opset1">
			<data element_type="i64" shape="4" offset="811" size="32" />
			<rt_info>
				<attribute name="precise" version="0" />
			</rt_info>
			<output>
				<port id="0" precision="I64">
					<dim>4</dim>
				</port>
			</output>
		</layer>
		<layer id="31" name="Transpose_118" type="Reshape" version="opset1">
			<data special_zero="true" />
			<input>
				<port id="0" precision="FP32">
					<dim>-1</dim>
					<dim>1</dim>
					<dim>64</dim>
					<dim>2998</dim>
				</port>
				<port id="1" precision="I64">
					<dim>4</dim>
				</port>
			</input>
			<output>
				<port id="2" precision="FP32">
					<dim>-1</dim>
					<dim>64</dim>
					<dim>1</dim>
					<dim>2998</dim>
				</port>
			</output>
		</layer>
		<layer id="32" name="MaxPool_119" type="MaxPool" version="opset8">
			<data strides="1, 2" dilations="1, 1" pads_begin="0, 0" pads_end="0, 0" kernel="1, 2" rounding_type="floor" auto_pad="valid" index_element_type="i64" axis="0" />
			<input>
				<port id="0" precision="FP32">
					<dim>-1</dim>
					<dim>64</dim>
					<dim>1</dim>
					<dim>2998</dim>
				</port>
			</input>
			<output>
				<port id="1" precision="FP32">
					<dim>-1</dim>
					<dim>64</dim>
					<dim>1</dim>
					<dim>1499</dim>
				</port>
				<port id="2" precision="I64">
					<dim>-1</dim>
					<dim>64</dim>
					<dim>1</dim>
					<dim>1499</dim>
				</port>
			</output>
		</layer>
		<layer id="33" name="Constant_1746" type="Const" version="opset1">
			<data element_type="i32" shape="1" offset="35" size="4" />
			<output>
				<port id="0" precision="I32">
					<dim>1</dim>
				</port>
			</output>
		</layer>
		<layer id="34" name="Transpose_1748" type="Squeeze" version="opset1">
			<input>
				<port id="0" precision="FP32">
					<dim>-1</dim>
					<dim>64</dim>
					<dim>1</dim>
					<dim>1499</dim>
				</port>
				<port id="1" precision="I32">
					<dim>1</dim>
				</port>
			</input>
			<output>
				<port id="2" precision="FP32">
					<dim>-1</dim>
					<dim>64</dim>
					<dim>1499</dim>
				</port>
			</output>
		</layer>
		<layer id="35" name="sequential_1/conv1d_1_2/convolution/ExpandDims/dim" type="Const" version="opset1">
			<data element_type="i32" shape="" offset="843" size="4" />
			<output>
				<port id="0" precision="I32" />
			</output>
		</layer>
		<layer id="36" name="Transpose_1751" type="Unsqueeze" version="opset1">
			<input>
				<port id="0" precision="FP32">
					<dim>-1</dim>
					<dim>64</dim>
					<dim>1499</dim>
				</port>
				<port id="1" precision="I32" />
			</input>
			<output>
				<port id="2" precision="FP32">
					<dim>-1</dim>
					<dim>1</dim>
					<dim>64</dim>
					<dim>1499</dim>
				</port>
			</output>
		</layer>
		<layer id="37" name="Constant_4093" type="Const" version="opset1">
			<data element_type="i64" shape="4" offset="811" size="32" />
			<rt_info>
				<attribute name="precise" version="0" />
			</rt_info>
			<output>
				<port id="0" precision="I64">
					<dim>4</dim>
				</port>
			</output>
		</layer>
		<layer id="38" name="Transpose_126" type="Reshape" version="opset1">
			<data special_zero="true" />
			<input>
				<port id="0" precision="FP32">
					<dim>-1</dim>
					<dim>1</dim>
					<dim>64</dim>
					<dim>1499</dim>
				</port>
				<port id="1" precision="I64">
					<dim>4</dim>
				</port>
			</input>
			<output>
				<port id="2" precision="FP32">
					<dim>-1</dim>
					<dim>64</dim>
					<dim>1</dim>
					<dim>1499</dim>
				</port>
			</output>
		</layer>
		<layer id="39" name="Transpose_128_compressed" type="Const" version="opset1">
			<data element_type="f16" shape="128, 64, 1, 3" offset="847" size="49152" />
			<output>
				<port id="0" precision="FP16">
					<dim>128</dim>
					<dim>64</dim>
					<dim>1</dim>
					<dim>3</dim>
				</port>
			</output>
		</layer>
		<layer id="40" name="Transpose_128" type="Convert" version="opset1">
			<data destination_type="f32" />
			<rt_info>
				<attribute name="decompression" version="0" />
			</rt_info>
			<input>
				<port id="0" precision="FP16">
					<dim>128</dim>
					<dim>64</dim>
					<dim>1</dim>
					<dim>3</dim>
				</port>
			</input>
			<output>
				<port id="1" precision="FP32">
					<dim>128</dim>
					<dim>64</dim>
					<dim>1</dim>
					<dim>3</dim>
				</port>
			</output>
		</layer>
		<layer id="41" name="Convolution_129" type="Convolution" version="opset1">
			<data strides="1, 1" dilations="1, 1" pads_begin="0, 0" pads_end="0, 0" auto_pad="valid" />
			<input>
				<port id="0" precision="FP32">
					<dim>-1</dim>
					<dim>64</dim>
					<dim>1</dim>
					<dim>1499</dim>
				</port>
				<port id="1" precision="FP32">
					<dim>128</dim>
					<dim>64</dim>
					<dim>1</dim>
					<dim>3</dim>
				</port>
			</input>
			<output>
				<port id="2" precision="FP32">
					<dim>-1</dim>
					<dim>128</dim>
					<dim>1</dim>
					<dim>1497</dim>
				</port>
			</output>
		</layer>
		<layer id="42" name="Constant_1755" type="Const" version="opset1">
			<data element_type="i32" shape="1" offset="35" size="4" />
			<output>
				<port id="0" precision="I32">
					<dim>1</dim>
				</port>
			</output>
		</layer>
		<layer id="43" name="Transpose_1757" type="Squeeze" version="opset1">
			<input>
				<port id="0" precision="FP32">
					<dim>-1</dim>
					<dim>128</dim>
					<dim>1</dim>
					<dim>1497</dim>
				</port>
				<port id="1" precision="I32">
					<dim>1</dim>
				</port>
			</input>
			<output>
				<port id="2" precision="FP32">
					<dim>-1</dim>
					<dim>128</dim>
					<dim>1497</dim>
				</port>
			</output>
		</layer>
		<layer id="44" name="Transpose_1761_compressed" type="Const" version="opset1">
			<data element_type="f16" shape="1, 128, 1" offset="49999" size="256" />
			<output>
				<port id="0" precision="FP16">
					<dim>1</dim>
					<dim>128</dim>
					<dim>1</dim>
				</port>
			</output>
		</layer>
		<layer id="45" name="Transpose_1761" type="Convert" version="opset1">
			<data destination_type="f32" />
			<rt_info>
				<attribute name="decompression" version="0" />
			</rt_info>
			<input>
				<port id="0" precision="FP16">
					<dim>1</dim>
					<dim>128</dim>
					<dim>1</dim>
				</port>
			</input>
			<output>
				<port id="1" precision="FP32">
					<dim>1</dim>
					<dim>128</dim>
					<dim>1</dim>
				</port>
			</output>
		</layer>
		<layer id="46" name="Transpose_1763" type="Add" version="opset1">
			<data auto_broadcast="numpy" />
			<input>
				<port id="0" precision="FP32">
					<dim>-1</dim>
					<dim>128</dim>
					<dim>1497</dim>
				</port>
				<port id="1" precision="FP32">
					<dim>1</dim>
					<dim>128</dim>
					<dim>1</dim>
				</port>
			</input>
			<output>
				<port id="2" precision="FP32">
					<dim>-1</dim>
					<dim>128</dim>
					<dim>1497</dim>
				</port>
			</output>
		</layer>
		<layer id="47" name="Transpose_1765" type="ReLU" version="opset1">
			<input>
				<port id="0" precision="FP32">
					<dim>-1</dim>
					<dim>128</dim>
					<dim>1497</dim>
				</port>
			</input>
			<output>
				<port id="1" precision="FP32">
					<dim>-1</dim>
					<dim>128</dim>
					<dim>1497</dim>
				</port>
			</output>
		</layer>
		<layer id="48" name="Transpose_1769_compressed" type="Const" version="opset1">
			<data element_type="f16" shape="1, 128, 1" offset="50255" size="256" />
			<output>
				<port id="0" precision="FP16">
					<dim>1</dim>
					<dim>128</dim>
					<dim>1</dim>
				</port>
			</output>
		</layer>
		<layer id="49" name="Transpose_1769" type="Convert" version="opset1">
			<data destination_type="f32" />
			<rt_info>
				<attribute name="decompression" version="0" />
			</rt_info>
			<input>
				<port id="0" precision="FP16">
					<dim>1</dim>
					<dim>128</dim>
					<dim>1</dim>
				</port>
			</input>
			<output>
				<port id="1" precision="FP32">
					<dim>1</dim>
					<dim>128</dim>
					<dim>1</dim>
				</port>
			</output>
		</layer>
		<layer id="50" name="Transpose_1771" type="Multiply" version="opset1">
			<data auto_broadcast="numpy" />
			<input>
				<port id="0" precision="FP32">
					<dim>-1</dim>
					<dim>128</dim>
					<dim>1497</dim>
				</port>
				<port id="1" precision="FP32">
					<dim>1</dim>
					<dim>128</dim>
					<dim>1</dim>
				</port>
			</input>
			<output>
				<port id="2" precision="FP32">
					<dim>-1</dim>
					<dim>128</dim>
					<dim>1497</dim>
				</port>
			</output>
		</layer>
		<layer id="51" name="Transpose_1775_compressed" type="Const" version="opset1">
			<data element_type="f16" shape="1, 128, 1" offset="50511" size="256" />
			<output>
				<port id="0" precision="FP16">
					<dim>1</dim>
					<dim>128</dim>
					<dim>1</dim>
				</port>
			</output>
		</layer>
		<layer id="52" name="Transpose_1775" type="Convert" version="opset1">
			<data destination_type="f32" />
			<rt_info>
				<attribute name="decompression" version="0" />
			</rt_info>
			<input>
				<port id="0" precision="FP16">
					<dim>1</dim>
					<dim>128</dim>
					<dim>1</dim>
				</port>
			</input>
			<output>
				<port id="1" precision="FP32">
					<dim>1</dim>
					<dim>128</dim>
					<dim>1</dim>
				</port>
			</output>
		</layer>
		<layer id="53" name="Transpose_1777" type="Add" version="opset1">
			<data auto_broadcast="numpy" />
			<input>
				<port id="0" precision="FP32">
					<dim>-1</dim>
					<dim>128</dim>
					<dim>1497</dim>
				</port>
				<port id="1" precision="FP32">
					<dim>1</dim>
					<dim>128</dim>
					<dim>1</dim>
				</port>
			</input>
			<output>
				<port id="2" precision="FP32">
					<dim>-1</dim>
					<dim>128</dim>
					<dim>1497</dim>
				</port>
			</output>
		</layer>
		<layer id="54" name="sequential_1/max_pooling1d_1_2/MaxPool1d/ExpandDims/dim" type="Const" version="opset1">
			<data element_type="i32" shape="" offset="807" size="4" />
			<output>
				<port id="0" precision="I32" />
			</output>
		</layer>
		<layer id="55" name="Transpose_1780" type="Unsqueeze" version="opset1">
			<input>
				<port id="0" precision="FP32">
					<dim>-1</dim>
					<dim>128</dim>
					<dim>1497</dim>
				</port>
				<port id="1" precision="I32" />
			</input>
			<output>
				<port id="2" precision="FP32">
					<dim>-1</dim>
					<dim>1</dim>
					<dim>128</dim>
					<dim>1497</dim>
				</port>
			</output>
		</layer>
		<layer id="56" name="Constant_4101" type="Const" version="opset1">
			<data element_type="i64" shape="4" offset="50767" size="32" />
			<rt_info>
				<attribute name="precise" version="0" />
			</rt_info>
			<output>
				<port id="0" precision="I64">
					<dim>4</dim>
				</port>
			</output>
		</layer>
		<layer id="57" name="Transpose_140" type="Reshape" version="opset1">
			<data special_zero="true" />
			<input>
				<port id="0" precision="FP32">
					<dim>-1</dim>
					<dim>1</dim>
					<dim>128</dim>
					<dim>1497</dim>
				</port>
				<port id="1" precision="I64">
					<dim>4</dim>
				</port>
			</input>
			<output>
				<port id="2" precision="FP32">
					<dim>-1</dim>
					<dim>128</dim>
					<dim>1</dim>
					<dim>1497</dim>
				</port>
			</output>
		</layer>
		<layer id="58" name="MaxPool_141" type="MaxPool" version="opset8">
			<data strides="1, 2" dilations="1, 1" pads_begin="0, 0" pads_end="0, 0" kernel="1, 2" rounding_type="floor" auto_pad="valid" index_element_type="i64" axis="0" />
			<input>
				<port id="0" precision="FP32">
					<dim>-1</dim>
					<dim>128</dim>
					<dim>1</dim>
					<dim>1497</dim>
				</port>
			</input>
			<output>
				<port id="1" precision="FP32">
					<dim>-1</dim>
					<dim>128</dim>
					<dim>1</dim>
					<dim>748</dim>
				</port>
				<port id="2" precision="I64">
					<dim>-1</dim>
					<dim>128</dim>
					<dim>1</dim>
					<dim>748</dim>
				</port>
			</output>
		</layer>
		<layer id="59" name="Constant_1784" type="Const" version="opset1">
			<data element_type="i32" shape="1" offset="35" size="4" />
			<output>
				<port id="0" precision="I32">
					<dim>1</dim>
				</port>
			</output>
		</layer>
		<layer id="60" name="Transpose_1786" type="Squeeze" version="opset1">
			<input>
				<port id="0" precision="FP32">
					<dim>-1</dim>
					<dim>128</dim>
					<dim>1</dim>
					<dim>748</dim>
				</port>
				<port id="1" precision="I32">
					<dim>1</dim>
				</port>
			</input>
			<output>
				<port id="2" precision="FP32">
					<dim>-1</dim>
					<dim>128</dim>
					<dim>748</dim>
				</port>
			</output>
		</layer>
		<layer id="61" name="Constant_352" type="Const" version="opset1">
			<data element_type="i32" shape="1" offset="5" size="4" />
			<output>
				<port id="0" precision="I32">
					<dim>1</dim>
				</port>
			</output>
		</layer>
		<layer id="62" name="Transpose_1795" type="Unsqueeze" version="opset1">
			<input>
				<port id="0" precision="FP32">
					<dim>-1</dim>
					<dim>128</dim>
					<dim>748</dim>
				</port>
				<port id="1" precision="I32">
					<dim>1</dim>
				</port>
			</input>
			<output>
				<port id="2" precision="FP32">
					<dim>1</dim>
					<dim>-1</dim>
					<dim>128</dim>
					<dim>748</dim>
				</port>
			</output>
		</layer>
		<layer id="63" name="ShapeOf_4409" type="ShapeOf" version="opset3">
			<data output_type="i32" />
			<input>
				<port id="0" precision="FP32">
					<dim>1</dim>
					<dim>-1</dim>
					<dim>128</dim>
					<dim>748</dim>
				</port>
			</input>
			<output>
				<port id="1" precision="I32">
					<dim>4</dim>
				</port>
			</output>
		</layer>
		<layer id="64" name="Constant_4536" type="Const" version="opset1">
			<data element_type="i64" shape="1" offset="50799" size="8" />
			<rt_info>
				<attribute name="precise" version="0" />
			</rt_info>
			<output>
				<port id="0" precision="I64">
					<dim>1</dim>
				</port>
			</output>
		</layer>
		<layer id="65" name="Constant_4411" type="Const" version="opset1">
			<data element_type="i64" shape="" offset="50807" size="8" />
			<rt_info>
				<attribute name="precise" version="0" />
			</rt_info>
			<output>
				<port id="0" precision="I64" />
			</output>
		</layer>
		<layer id="66" name="Gather_4412" type="Gather" version="opset8">
			<data batch_dims="0" />
			<input>
				<port id="0" precision="I32">
					<dim>4</dim>
				</port>
				<port id="1" precision="I64">
					<dim>1</dim>
				</port>
				<port id="2" precision="I64" />
			</input>
			<output>
				<port id="3" precision="I32">
					<dim>1</dim>
				</port>
			</output>
		</layer>
		<layer id="67" name="Unsqueeze_167" type="Const" version="opset1">
			<data element_type="i32" shape="1" offset="50815" size="4" />
			<rt_info>
				<attribute name="precise" version="0" />
			</rt_info>
			<output>
				<port id="0" precision="I32">
					<dim>1</dim>
				</port>
			</output>
		</layer>
		<layer id="68" name="sequential_1/bidirectional_1/forward_lstm_1/zeros/packed" type="Concat" version="opset1">
			<data axis="0" />
			<input>
				<port id="0" precision="I32">
					<dim>1</dim>
				</port>
				<port id="1" precision="I32">
					<dim>1</dim>
				</port>
			</input>
			<output>
				<port id="2" precision="I32">
					<dim>2</dim>
				</port>
			</output>
		</layer>
		<layer id="69" name="sequential_1/bidirectional_1/forward_lstm_1/zeros" type="Broadcast" version="opset3">
			<data mode="numpy" />
			<input>
				<port id="0" precision="FP32" />
				<port id="1" precision="I32">
					<dim>2</dim>
				</port>
			</input>
			<output>
				<port id="2" precision="FP32">
					<dim>-1</dim>
					<dim>64</dim>
				</port>
			</output>
		</layer>
		<layer id="70" name="Constant_1791" type="Const" version="opset1">
			<data element_type="i64" shape="3" offset="50819" size="24" />
			<output>
				<port id="0" precision="I64">
					<dim>3</dim>
				</port>
			</output>
		</layer>
		<layer id="71" name="sequential_1/bidirectional_1/backward_lstm_1/transpose" type="Transpose" version="opset1">
			<input>
				<port id="0" precision="FP32">
					<dim>-1</dim>
					<dim>128</dim>
					<dim>748</dim>
				</port>
				<port id="1" precision="I64">
					<dim>3</dim>
				</port>
			</input>
			<output>
				<port id="2" precision="FP32">
					<dim>748</dim>
					<dim>-1</dim>
					<dim>128</dim>
				</port>
			</output>
		</layer>
		<layer id="72" name="sequential_1/bidirectional_1/forward_lstm_1/while" type="Loop" version="opset5">
			<port_map>
				<input external_port_id="2" internal_layer_id="5" />
				<input external_port_id="3" internal_layer_id="4" />
				<input external_port_id="4" internal_layer_id="3" />
				<input external_port_id="5" internal_layer_id="2" />
				<input external_port_id="6" internal_layer_id="1" />
				<input external_port_id="7" internal_layer_id="0" />
				<output external_port_id="8" internal_layer_id="53" />
				<output external_port_id="-1" internal_layer_id="15" purpose="execution_condition" />
			</port_map>
			<back_edges>
				<edge from-layer="55" to-layer="5" />
				<edge from-layer="54" to-layer="4" />
				<edge from-layer="53" to-layer="3" />
				<edge from-layer="40" to-layer="2" />
				<edge from-layer="36" to-layer="1" />
			</back_edges>
			<input>
				<port id="0" precision="I32" />
				<port id="1" precision="BOOL" />
				<port id="2" precision="I32" />
				<port id="3" precision="I32" />
				<port id="4" precision="FP32">
					<dim>1</dim>
					<dim>1</dim>
					<dim>1</dim>
				</port>
				<port id="5" precision="FP32">
					<dim>-1</dim>
					<dim>64</dim>
				</port>
				<port id="6" precision="FP32">
					<dim>-1</dim>
					<dim>64</dim>
				</port>
				<port id="7" precision="FP32">
					<dim>748</dim>
					<dim>-1</dim>
					<dim>128</dim>
				</port>
			</input>
			<output>
				<port id="8" precision="FP32">
					<dim>1</dim>
					<dim>-1</dim>
					<dim>64</dim>
				</port>
			</output>
			<body>
				<layers>
					<layer id="5" name="sequential_1_bidirectional_1_forward_lstm_1_while_sequential_1_bidirectional_1_forward_lstm_1_while_loop_counter" type="Parameter" version="opset1">
						<data shape="" element_type="i32" />
						<output>
							<port id="0" precision="I32" />
						</output>
					</layer>
					<layer id="4" name="sequential_1_bidirectional_1_forward_lstm_1_while_placeholder" type="Parameter" version="opset1">
						<data shape="" element_type="i32" />
						<output>
							<port id="0" precision="I32" />
						</output>
					</layer>
					<layer id="3" name="sequential_1_bidirectional_1_forward_lstm_1_while_placeholder_1" type="Parameter" version="opset1">
						<data shape="1,?,?" element_type="f32" />
						<output>
							<port id="0" precision="FP32">
								<dim>1</dim>
								<dim>-1</dim>
								<dim>-1</dim>
							</port>
						</output>
					</layer>
					<layer id="2" name="sequential_1_bidirectional_1_forward_lstm_1_while_placeholder_2" type="Parameter" version="opset1">
						<data shape="?,64" element_type="f32" />
						<output>
							<port id="0" precision="FP32">
								<dim>-1</dim>
								<dim>64</dim>
							</port>
						</output>
					</layer>
					<layer id="1" name="sequential_1_bidirectional_1_forward_lstm_1_while_placeholder_3" type="Parameter" version="opset1">
						<data shape="?,64" element_type="f32" />
						<output>
							<port id="0" precision="FP32">
								<dim>-1</dim>
								<dim>64</dim>
							</port>
						</output>
					</layer>
					<layer id="0" name="sequential_1_bidirectional_1_forward_lstm_1_while_tensorarrayv2read_tensorlistgetitem_sequential_1_bidirectional_1_forward_lstm_1_tensorarrayunstack_tensorlistfromtensor_0" type="Parameter" version="opset1">
						<data shape="748,?,128" element_type="f32" />
						<output>
							<port id="0" precision="FP32">
								<dim>748</dim>
								<dim>-1</dim>
								<dim>128</dim>
							</port>
						</output>
					</layer>
					<layer id="6" name="sequential_1/bidirectional_1/forward_lstm_1/while/add_1/y" type="Const" version="opset1">
						<data element_type="i32" shape="" offset="807" size="4" />
						<output>
							<port id="0" precision="I32" />
						</output>
					</layer>
					<layer id="7" name="sequential_1/bidirectional_1/forward_lstm_1/while/add_1" type="Add" version="opset1">
						<data auto_broadcast="numpy" />
						<input>
							<port id="0" precision="I32" />
							<port id="1" precision="I32" />
						</input>
						<output>
							<port id="2" precision="I32" />
						</output>
					</layer>
					<layer id="8" name="sequential_1/bidirectional_1/forward_lstm_1/Max" type="Const" version="opset1">
						<data element_type="i32" shape="" offset="50843" size="4" />
						<output>
							<port id="0" precision="I32" />
						</output>
					</layer>
					<layer id="9" name="sequential_1/bidirectional_1/forward_lstm_1/while/Less_1" type="Less" version="opset1">
						<data auto_broadcast="numpy" />
						<input>
							<port id="0" precision="I32" />
							<port id="1" precision="I32" />
						</input>
						<output>
							<port id="2" precision="BOOL" />
						</output>
					</layer>
					<layer id="10" name="sequential_1/bidirectional_1/forward_lstm_1/while/add/y" type="Const" version="opset1">
						<data element_type="i32" shape="" offset="807" size="4" />
						<output>
							<port id="0" precision="I32" />
						</output>
					</layer>
					<layer id="11" name="sequential_1/bidirectional_1/forward_lstm_1/while/add" type="Add" version="opset1">
						<data auto_broadcast="numpy" />
						<input>
							<port id="0" precision="I32" />
							<port id="1" precision="I32" />
						</input>
						<output>
							<port id="2" precision="I32" />
						</output>
					</layer>
					<layer id="12" name="sequential_1/bidirectional_1/forward_lstm_1/while/Less/y" type="Const" version="opset1">
						<data element_type="i32" shape="" offset="50843" size="4" />
						<output>
							<port id="0" precision="I32" />
						</output>
					</layer>
					<layer id="13" name="sequential_1/bidirectional_1/forward_lstm_1/while/Less" type="Less" version="opset1">
						<data auto_broadcast="numpy" />
						<input>
							<port id="0" precision="I32" />
							<port id="1" precision="I32" />
						</input>
						<output>
							<port id="2" precision="BOOL" />
						</output>
					</layer>
					<layer id="14" name="sequential_1/bidirectional_1/forward_lstm_1/while/LogicalAnd_1" type="LogicalAnd" version="opset1">
						<data auto_broadcast="numpy" />
						<input>
							<port id="0" precision="BOOL" />
							<port id="1" precision="BOOL" />
						</input>
						<output>
							<port id="2" precision="BOOL" />
						</output>
					</layer>
					<layer id="16" name="Constant_1637" type="Const" version="opset1">
						<data element_type="i32" shape="1" offset="5" size="4" />
						<output>
							<port id="0" precision="I32">
								<dim>1</dim>
							</port>
						</output>
					</layer>
					<layer id="17" name="Gather_1638" type="Gather" version="opset8">
						<data batch_dims="0" />
						<input>
							<port id="0" precision="FP32">
								<dim>748</dim>
								<dim>-1</dim>
								<dim>128</dim>
							</port>
							<port id="1" precision="I32" />
							<port id="2" precision="I32">
								<dim>1</dim>
							</port>
						</input>
						<output>
							<port id="3" precision="FP32">
								<dim>-1</dim>
								<dim>128</dim>
							</port>
						</output>
					</layer>
					<layer id="18" name="Transpose_4108_compressed" type="Const" version="opset1">
						<data element_type="f16" shape="256, 128" offset="50847" size="65536" />
						<output>
							<port id="0" precision="FP16">
								<dim>256</dim>
								<dim>128</dim>
							</port>
						</output>
					</layer>
					<layer id="19" name="Transpose_4108" type="Convert" version="opset1">
						<data destination_type="f32" />
						<rt_info>
							<attribute name="decompression" version="0" />
						</rt_info>
						<input>
							<port id="0" precision="FP16">
								<dim>256</dim>
								<dim>128</dim>
							</port>
						</input>
						<output>
							<port id="1" precision="FP32">
								<dim>256</dim>
								<dim>128</dim>
							</port>
						</output>
					</layer>
					<layer id="20" name="sequential_1/bidirectional_1/forward_lstm_1/while/lstm_cell_1/MatMul" type="MatMul" version="opset1">
						<data transpose_a="false" transpose_b="true" />
						<input>
							<port id="0" precision="FP32">
								<dim>-1</dim>
								<dim>128</dim>
							</port>
							<port id="1" precision="FP32">
								<dim>256</dim>
								<dim>128</dim>
							</port>
						</input>
						<output>
							<port id="2" precision="FP32">
								<dim>-1</dim>
								<dim>256</dim>
							</port>
						</output>
					</layer>
					<layer id="21" name="Transpose_4111_compressed" type="Const" version="opset1">
						<data element_type="f16" shape="256, 64" offset="116383" size="32768" />
						<output>
							<port id="0" precision="FP16">
								<dim>256</dim>
								<dim>64</dim>
							</port>
						</output>
					</layer>
					<layer id="22" name="Transpose_4111" type="Convert" version="opset1">
						<data destination_type="f32" />
						<rt_info>
							<attribute name="decompression" version="0" />
						</rt_info>
						<input>
							<port id="0" precision="FP16">
								<dim>256</dim>
								<dim>64</dim>
							</port>
						</input>
						<output>
							<port id="1" precision="FP32">
								<dim>256</dim>
								<dim>64</dim>
							</port>
						</output>
					</layer>
					<layer id="23" name="sequential_1/bidirectional_1/forward_lstm_1/while/lstm_cell_1/MatMul_1" type="MatMul" version="opset1">
						<data transpose_a="false" transpose_b="true" />
						<input>
							<port id="0" precision="FP32">
								<dim>-1</dim>
								<dim>64</dim>
							</port>
							<port id="1" precision="FP32">
								<dim>256</dim>
								<dim>64</dim>
							</port>
						</input>
						<output>
							<port id="2" precision="FP32">
								<dim>-1</dim>
								<dim>256</dim>
							</port>
						</output>
					</layer>
					<layer id="24" name="sequential_1/bidirectional_1/forward_lstm_1/while/lstm_cell_1/Add" type="Add" version="opset1">
						<data auto_broadcast="numpy" />
						<input>
							<port id="0" precision="FP32">
								<dim>-1</dim>
								<dim>256</dim>
							</port>
							<port id="1" precision="FP32">
								<dim>-1</dim>
								<dim>256</dim>
							</port>
						</input>
						<output>
							<port id="2" precision="FP32">
								<dim>-1</dim>
								<dim>256</dim>
							</port>
						</output>
					</layer>
					<layer id="25" name="Constant_4313_compressed" type="Const" version="opset1">
						<data element_type="f16" shape="1, 256" offset="149151" size="512" />
						<output>
							<port id="0" precision="FP16">
								<dim>1</dim>
								<dim>256</dim>
							</port>
						</output>
					</layer>
					<layer id="26" name="Constant_4313" type="Convert" version="opset1">
						<data destination_type="f32" />
						<rt_info>
							<attribute name="decompression" version="0" />
						</rt_info>
						<input>
							<port id="0" precision="FP16">
								<dim>1</dim>
								<dim>256</dim>
							</port>
						</input>
						<output>
							<port id="1" precision="FP32">
								<dim>1</dim>
								<dim>256</dim>
							</port>
						</output>
					</layer>
					<layer id="27" name="sequential_1/bidirectional_1/forward_lstm_1/while/lstm_cell_1/BiasAdd" type="Add" version="opset1">
						<data auto_broadcast="numpy" />
						<input>
							<port id="0" precision="FP32">
								<dim>-1</dim>
								<dim>256</dim>
							</port>
							<port id="1" precision="FP32">
								<dim>1</dim>
								<dim>256</dim>
							</port>
						</input>
						<output>
							<port id="2" precision="FP32">
								<dim>-1</dim>
								<dim>256</dim>
							</port>
						</output>
					</layer>
					<layer id="28" name="sequential_1/bidirectional_1/forward_lstm_1/while/lstm_cell_1/split/split_dim" type="Const" version="opset1">
						<data element_type="i32" shape="" offset="807" size="4" />
						<output>
							<port id="0" precision="I32" />
						</output>
					</layer>
					<layer id="29" name="sequential_1/bidirectional_1/forward_lstm_1/while/lstm_cell_1/split" type="Split" version="opset1">
						<data num_splits="4" />
						<input>
							<port id="0" precision="FP32">
								<dim>-1</dim>
								<dim>256</dim>
							</port>
							<port id="1" precision="I32" />
						</input>
						<output>
							<port id="2" precision="FP32">
								<dim>-1</dim>
								<dim>64</dim>
							</port>
							<port id="3" precision="FP32">
								<dim>-1</dim>
								<dim>64</dim>
							</port>
							<port id="4" precision="FP32">
								<dim>-1</dim>
								<dim>64</dim>
							</port>
							<port id="5" precision="FP32">
								<dim>-1</dim>
								<dim>64</dim>
							</port>
						</output>
					</layer>
					<layer id="30" name="sequential_1/bidirectional_1/forward_lstm_1/while/lstm_cell_1/Sigmoid_1" type="Sigmoid" version="opset1">
						<input>
							<port id="0" precision="FP32">
								<dim>-1</dim>
								<dim>64</dim>
							</port>
						</input>
						<output>
							<port id="1" precision="FP32">
								<dim>-1</dim>
								<dim>64</dim>
							</port>
						</output>
					</layer>
					<layer id="31" name="sequential_1/bidirectional_1/forward_lstm_1/while/lstm_cell_1/mul" type="Multiply" version="opset1">
						<data auto_broadcast="numpy" />
						<input>
							<port id="0" precision="FP32">
								<dim>-1</dim>
								<dim>64</dim>
							</port>
							<port id="1" precision="FP32">
								<dim>-1</dim>
								<dim>64</dim>
							</port>
						</input>
						<output>
							<port id="2" precision="FP32">
								<dim>-1</dim>
								<dim>64</dim>
							</port>
						</output>
					</layer>
					<layer id="32" name="sequential_1/bidirectional_1/forward_lstm_1/while/lstm_cell_1/Sigmoid" type="Sigmoid" version="opset1">
						<input>
							<port id="0" precision="FP32">
								<dim>-1</dim>
								<dim>64</dim>
							</port>
						</input>
						<output>
							<port id="1" precision="FP32">
								<dim>-1</dim>
								<dim>64</dim>
							</port>
						</output>
					</layer>
					<layer id="33" name="sequential_1/bidirectional_1/forward_lstm_1/while/lstm_cell_1/Tanh" type="Tanh" version="opset1">
						<input>
							<port id="0" precision="FP32">
								<dim>-1</dim>
								<dim>64</dim>
							</port>
						</input>
						<output>
							<port id="1" precision="FP32">
								<dim>-1</dim>
								<dim>64</dim>
							</port>
						</output>
					</layer>
					<layer id="34" name="sequential_1/bidirectional_1/forward_lstm_1/while/lstm_cell_1/mul_1" type="Multiply" version="opset1">
						<data auto_broadcast="numpy" />
						<input>
							<port id="0" precision="FP32">
								<dim>-1</dim>
								<dim>64</dim>
							</port>
							<port id="1" precision="FP32">
								<dim>-1</dim>
								<dim>64</dim>
							</port>
						</input>
						<output>
							<port id="2" precision="FP32">
								<dim>-1</dim>
								<dim>64</dim>
							</port>
						</output>
					</layer>
					<layer id="35" name="sequential_1/bidirectional_1/forward_lstm_1/while/lstm_cell_1/add_1" type="Add" version="opset1">
						<data auto_broadcast="numpy" />
						<input>
							<port id="0" precision="FP32">
								<dim>-1</dim>
								<dim>64</dim>
							</port>
							<port id="1" precision="FP32">
								<dim>-1</dim>
								<dim>64</dim>
							</port>
						</input>
						<output>
							<port id="2" precision="FP32">
								<dim>-1</dim>
								<dim>64</dim>
							</port>
						</output>
					</layer>
					<layer id="37" name="sequential_1/bidirectional_1/forward_lstm_1/while/lstm_cell_1/Sigmoid_2" type="Sigmoid" version="opset1">
						<input>
							<port id="0" precision="FP32">
								<dim>-1</dim>
								<dim>64</dim>
							</port>
						</input>
						<output>
							<port id="1" precision="FP32">
								<dim>-1</dim>
								<dim>64</dim>
							</port>
						</output>
					</layer>
					<layer id="38" name="sequential_1/bidirectional_1/forward_lstm_1/while/lstm_cell_1/Tanh_1" type="Tanh" version="opset1">
						<input>
							<port id="0" precision="FP32">
								<dim>-1</dim>
								<dim>64</dim>
							</port>
						</input>
						<output>
							<port id="1" precision="FP32">
								<dim>-1</dim>
								<dim>64</dim>
							</port>
						</output>
					</layer>
					<layer id="39" name="sequential_1/bidirectional_1/forward_lstm_1/while/lstm_cell_1/mul_2" type="Multiply" version="opset1">
						<data auto_broadcast="numpy" />
						<input>
							<port id="0" precision="FP32">
								<dim>-1</dim>
								<dim>64</dim>
							</port>
							<port id="1" precision="FP32">
								<dim>-1</dim>
								<dim>64</dim>
							</port>
						</input>
						<output>
							<port id="2" precision="FP32">
								<dim>-1</dim>
								<dim>64</dim>
							</port>
						</output>
					</layer>
					<layer id="41" name="ShapeOf_1601" type="ShapeOf" version="opset3">
						<data output_type="i32" />
						<input>
							<port id="0" precision="FP32">
								<dim>1</dim>
								<dim>-1</dim>
								<dim>-1</dim>
							</port>
						</input>
						<output>
							<port id="1" precision="I32">
								<dim>3</dim>
							</port>
						</output>
					</layer>
					<layer id="42" name="Constant_1602" type="Const" version="opset1">
						<data element_type="i32" shape="1" offset="5" size="4" />
						<rt_info>
							<attribute name="precise" version="0" />
						</rt_info>
						<output>
							<port id="0" precision="I32">
								<dim>1</dim>
							</port>
						</output>
					</layer>
					<layer id="43" name="Constant_1603" type="Const" version="opset1">
						<data element_type="i32" shape="1" offset="807" size="4" />
						<rt_info>
							<attribute name="precise" version="0" />
						</rt_info>
						<output>
							<port id="0" precision="I32">
								<dim>1</dim>
							</port>
						</output>
					</layer>
					<layer id="44" name="Constant_1605" type="Const" version="opset1">
						<data element_type="i64" shape="1" offset="50807" size="8" />
						<rt_info>
							<attribute name="precise" version="0" />
						</rt_info>
						<output>
							<port id="0" precision="I64">
								<dim>1</dim>
							</port>
						</output>
					</layer>
					<layer id="45" name="Slice_1604" type="Slice" version="opset8">
						<input>
							<port id="0" precision="I32">
								<dim>3</dim>
							</port>
							<port id="1" precision="I32">
								<dim>1</dim>
							</port>
							<port id="2" precision="I32">
								<dim>1</dim>
							</port>
							<port id="3" precision="I32">
								<dim>1</dim>
							</port>
							<port id="4" precision="I64">
								<dim>1</dim>
							</port>
						</input>
						<output>
							<port id="5" precision="I32">
								<dim>1</dim>
							</port>
						</output>
					</layer>
					<layer id="46" name="ShapeOf_1606" type="ShapeOf" version="opset3">
						<data output_type="i32" />
						<input>
							<port id="0" precision="FP32">
								<dim>-1</dim>
								<dim>64</dim>
							</port>
						</input>
						<output>
							<port id="1" precision="I32">
								<dim>2</dim>
							</port>
						</output>
					</layer>
					<layer id="47" name="Concat_1607" type="Concat" version="opset1">
						<data axis="0" />
						<input>
							<port id="0" precision="I32">
								<dim>1</dim>
							</port>
							<port id="1" precision="I32">
								<dim>2</dim>
							</port>
						</input>
						<output>
							<port id="2" precision="I32">
								<dim>3</dim>
							</port>
						</output>
					</layer>
					<layer id="48" name="Constant_1608" type="Const" version="opset1">
						<data element_type="u8" shape="" offset="149663" size="1" />
						<output>
							<port id="0" precision="U8" />
						</output>
					</layer>
					<layer id="49" name="Broadcast_1609" type="Broadcast" version="opset1">
						<data mode="numpy" />
						<input>
							<port id="0" precision="FP32">
								<dim>1</dim>
								<dim>-1</dim>
								<dim>-1</dim>
							</port>
							<port id="1" precision="I32">
								<dim>3</dim>
							</port>
							<port id="2" precision="U8" />
						</input>
						<output>
							<port id="3" precision="FP32">
								<dim>1</dim>
								<dim>-1</dim>
								<dim>64</dim>
							</port>
						</output>
					</layer>
					<layer id="50" name="Reshape_1600" type="Const" version="opset1">
						<data element_type="i32" shape="1" offset="5" size="4" />
						<output>
							<port id="0" precision="I32">
								<dim>1</dim>
							</port>
						</output>
					</layer>
					<layer id="51" name="Unsqueeze_1616" type="Unsqueeze" version="opset1">
						<input>
							<port id="0" precision="FP32">
								<dim>-1</dim>
								<dim>64</dim>
							</port>
							<port id="1" precision="I32">
								<dim>1</dim>
							</port>
						</input>
						<output>
							<port id="2" precision="FP32">
								<dim>1</dim>
								<dim>-1</dim>
								<dim>64</dim>
							</port>
						</output>
					</layer>
					<layer id="52" name="sequential_1/bidirectional_1/forward_lstm_1/while/TensorArrayV2Write/TensorListSetItem" type="ScatterUpdate" version="opset3">
						<input>
							<port id="0" precision="FP32">
								<dim>1</dim>
								<dim>-1</dim>
								<dim>64</dim>
							</port>
							<port id="1" precision="I32">
								<dim>1</dim>
							</port>
							<port id="2" precision="FP32">
								<dim>1</dim>
								<dim>-1</dim>
								<dim>64</dim>
							</port>
							<port id="3" precision="I32">
								<dim>1</dim>
							</port>
						</input>
						<output>
							<port id="4" precision="FP32">
								<dim>1</dim>
								<dim>-1</dim>
								<dim>64</dim>
							</port>
						</output>
					</layer>
					<layer id="55" name="sequential_1_bidirectional_1_forward_lstm_1_while_identity_1" type="Result" version="opset1">
						<input>
							<port id="0" precision="I32" />
						</input>
					</layer>
					<layer id="54" name="sequential_1_bidirectional_1_forward_lstm_1_while_identity_2" type="Result" version="opset1">
						<input>
							<port id="0" precision="I32" />
						</input>
					</layer>
					<layer id="53" name="sequential_1_bidirectional_1_forward_lstm_1_while_identity_3" type="Result" version="opset1">
						<input>
							<port id="0" precision="FP32">
								<dim>1</dim>
								<dim>-1</dim>
								<dim>64</dim>
							</port>
						</input>
					</layer>
					<layer id="40" name="sequential_1_bidirectional_1_forward_lstm_1_while_identity_4" type="Result" version="opset1">
						<input>
							<port id="0" precision="FP32">
								<dim>-1</dim>
								<dim>64</dim>
							</port>
						</input>
					</layer>
					<layer id="36" name="sequential_1_bidirectional_1_forward_lstm_1_while_identity_5" type="Result" version="opset1">
						<input>
							<port id="0" precision="FP32">
								<dim>-1</dim>
								<dim>64</dim>
							</port>
						</input>
					</layer>
					<layer id="15" name="sequential_1_bidirectional_1_forward_lstm_1_while_identity" type="Result" version="opset1">
						<input>
							<port id="0" precision="BOOL" />
						</input>
					</layer>
				</layers>
				<edges>
					<edge from-layer="0" from-port="0" to-layer="17" to-port="0" />
					<edge from-layer="1" from-port="0" to-layer="31" to-port="1" />
					<edge from-layer="2" from-port="0" to-layer="23" to-port="0" />
					<edge from-layer="3" from-port="0" to-layer="41" to-port="0" />
					<edge from-layer="3" from-port="0" to-layer="49" to-port="0" />
					<edge from-layer="4" from-port="0" to-layer="11" to-port="0" />
					<edge from-layer="4" from-port="0" to-layer="17" to-port="1" />
					<edge from-layer="5" from-port="0" to-layer="7" to-port="0" />
					<edge from-layer="6" from-port="0" to-layer="7" to-port="1" />
					<edge from-layer="7" from-port="2" to-layer="9" to-port="0" />
					<edge from-layer="7" from-port="2" to-layer="55" to-port="0" />
					<edge from-layer="8" from-port="0" to-layer="9" to-port="1" />
					<edge from-layer="9" from-port="2" to-layer="14" to-port="0" />
					<edge from-layer="10" from-port="0" to-layer="11" to-port="1" />
					<edge from-layer="11" from-port="2" to-layer="13" to-port="0" />
					<edge from-layer="11" from-port="2" to-layer="54" to-port="0" />
					<edge from-layer="12" from-port="0" to-layer="13" to-port="1" />
					<edge from-layer="13" from-port="2" to-layer="14" to-port="1" />
					<edge from-layer="14" from-port="2" to-layer="15" to-port="0" />
					<edge from-layer="16" from-port="0" to-layer="17" to-port="2" />
					<edge from-layer="17" from-port="3" to-layer="20" to-port="0" />
					<edge from-layer="18" from-port="0" to-layer="19" to-port="0" />
					<edge from-layer="19" from-port="1" to-layer="20" to-port="1" />
					<edge from-layer="20" from-port="2" to-layer="24" to-port="0" />
					<edge from-layer="21" from-port="0" to-layer="22" to-port="0" />
					<edge from-layer="22" from-port="1" to-layer="23" to-port="1" />
					<edge from-layer="23" from-port="2" to-layer="24" to-port="1" />
					<edge from-layer="24" from-port="2" to-layer="27" to-port="0" />
					<edge from-layer="25" from-port="0" to-layer="26" to-port="0" />
					<edge from-layer="26" from-port="1" to-layer="27" to-port="1" />
					<edge from-layer="27" from-port="2" to-layer="29" to-port="0" />
					<edge from-layer="28" from-port="0" to-layer="29" to-port="1" />
					<edge from-layer="29" from-port="5" to-layer="37" to-port="0" />
					<edge from-layer="29" from-port="3" to-layer="30" to-port="0" />
					<edge from-layer="29" from-port="2" to-layer="32" to-port="0" />
					<edge from-layer="29" from-port="4" to-layer="33" to-port="0" />
					<edge from-layer="30" from-port="1" to-layer="31" to-port="0" />
					<edge from-layer="31" from-port="2" to-layer="35" to-port="0" />
					<edge from-layer="32" from-port="1" to-layer="34" to-port="0" />
					<edge from-layer="33" from-port="1" to-layer="34" to-port="1" />
					<edge from-layer="34" from-port="2" to-layer="35" to-port="1" />
					<edge from-layer="35" from-port="2" to-layer="36" to-port="0" />
					<edge from-layer="35" from-port="2" to-layer="38" to-port="0" />
					<edge from-layer="37" from-port="1" to-layer="39" to-port="0" />
					<edge from-layer="38" from-port="1" to-layer="39" to-port="1" />
					<edge from-layer="39" from-port="2" to-layer="40" to-port="0" />
					<edge from-layer="39" from-port="2" to-layer="51" to-port="0" />
					<edge from-layer="39" from-port="2" to-layer="46" to-port="0" />
					<edge from-layer="41" from-port="1" to-layer="45" to-port="0" />
					<edge from-layer="42" from-port="0" to-layer="45" to-port="1" />
					<edge from-layer="42" from-port="0" to-layer="52" to-port="3" />
					<edge from-layer="42" from-port="0" to-layer="51" to-port="1" />
					<edge from-layer="43" from-port="0" to-layer="45" to-port="2" />
					<edge from-layer="43" from-port="0" to-layer="45" to-port="3" />
					<edge from-layer="44" from-port="0" to-layer="45" to-port="4" />
					<edge from-layer="45" from-port="5" to-layer="47" to-port="0" />
					<edge from-layer="46" from-port="1" to-layer="47" to-port="1" />
					<edge from-layer="47" from-port="2" to-layer="49" to-port="1" />
					<edge from-layer="48" from-port="0" to-layer="49" to-port="2" />
					<edge from-layer="49" from-port="3" to-layer="52" to-port="0" />
					<edge from-layer="50" from-port="0" to-layer="52" to-port="1" />
					<edge from-layer="51" from-port="2" to-layer="52" to-port="2" />
					<edge from-layer="52" from-port="4" to-layer="53" to-port="0" />
				</edges>
				<rt_info />
			</body>
		</layer>
		<layer id="73" name="sequential_1/bidirectional_1/forward_lstm_1/strided_slice_3/stack" type="Const" version="opset1">
			<data element_type="i32" shape="1" offset="0" size="4" />
			<rt_info>
				<attribute name="precise" version="0" />
			</rt_info>
			<output>
				<port id="0" precision="I32">
					<dim>1</dim>
				</port>
			</output>
		</layer>
		<layer id="74" name="sequential_1/bidirectional_1/forward_lstm_1/strided_slice_3/stack_1" type="Const" version="opset1">
			<data element_type="i32" shape="1" offset="5" size="4" />
			<rt_info>
				<attribute name="precise" version="0" />
			</rt_info>
			<output>
				<port id="0" precision="I32">
					<dim>1</dim>
				</port>
			</output>
		</layer>
		<layer id="75" name="sequential_1/bidirectional_1/forward_lstm_1/strided_slice_3/stack_2" type="Const" version="opset1">
			<data element_type="i32" shape="1" offset="807" size="4" />
			<rt_info>
				<attribute name="precise" version="0" />
			</rt_info>
			<output>
				<port id="0" precision="I32">
					<dim>1</dim>
				</port>
			</output>
		</layer>
		<layer id="76" name="sequential_1/bidirectional_1/forward_lstm_1/strided_slice_3" type="StridedSlice" version="opset1">
			<data begin_mask="0" end_mask="0" new_axis_mask="0" shrink_axis_mask="1" ellipsis_mask="0" />
			<input>
				<port id="0" precision="FP32">
					<dim>1</dim>
					<dim>-1</dim>
					<dim>64</dim>
				</port>
				<port id="1" precision="I32">
					<dim>1</dim>
				</port>
				<port id="2" precision="I32">
					<dim>1</dim>
				</port>
				<port id="3" precision="I32">
					<dim>1</dim>
				</port>
			</input>
			<output>
				<port id="4" precision="FP32">
					<dim>-1</dim>
					<dim>64</dim>
				</port>
			</output>
		</layer>
		<layer id="77" name="Constant_546" type="Const" version="opset1">
			<data element_type="i32" shape="" offset="0" size="4" />
			<output>
				<port id="0" precision="I32" />
			</output>
		</layer>
		<layer id="78" name="sequential_1/bidirectional_1/backward_lstm_1/while/LogicalAnd" type="Const" version="opset1">
			<data element_type="boolean" shape="" offset="4" size="1" />
			<output>
				<port id="0" precision="BOOL" />
			</output>
		</layer>
		<layer id="79" name="sequential_1/bidirectional_1/backward_lstm_1/while/loop_counter" type="Const" version="opset1">
			<data element_type="i32" shape="" offset="5" size="4" />
			<output>
				<port id="0" precision="I32" />
			</output>
		</layer>
		<layer id="80" name="sequential_1/bidirectional_1/backward_lstm_1/time" type="Const" version="opset1">
			<data element_type="i32" shape="" offset="5" size="4" />
			<output>
				<port id="0" precision="I32" />
			</output>
		</layer>
		<layer id="81" name="sequential_1/bidirectional_1/backward_lstm_1/TensorArrayV2_1_compressed" type="Const" version="opset1">
			<data element_type="f16" shape="1, 1, 1" offset="9" size="2" />
			<output>
				<port id="0" precision="FP16">
					<dim>1</dim>
					<dim>1</dim>
					<dim>1</dim>
				</port>
			</output>
		</layer>
		<layer id="82" name="sequential_1/bidirectional_1/backward_lstm_1/TensorArrayV2_1" type="Convert" version="opset1">
			<data destination_type="f32" />
			<rt_info>
				<attribute name="decompression" version="0" />
			</rt_info>
			<input>
				<port id="0" precision="FP16">
					<dim>1</dim>
					<dim>1</dim>
					<dim>1</dim>
				</port>
			</input>
			<output>
				<port id="1" precision="FP32">
					<dim>1</dim>
					<dim>1</dim>
					<dim>1</dim>
				</port>
			</output>
		</layer>
		<layer id="83" name="Constant_1794" type="Const" version="opset1">
			<data element_type="i64" shape="4" offset="149664" size="32" />
			<output>
				<port id="0" precision="I64">
					<dim>4</dim>
				</port>
			</output>
		</layer>
		<layer id="84" name="Constant_1796" type="Const" version="opset1">
			<data element_type="i32" shape="" offset="5" size="4" />
			<output>
				<port id="0" precision="I32" />
			</output>
		</layer>
		<layer id="85" name="ShapeOf_354" type="Gather" version="opset8">
			<data batch_dims="0" />
			<input>
				<port id="0" precision="I32">
					<dim>4</dim>
				</port>
				<port id="1" precision="I64">
					<dim>4</dim>
				</port>
				<port id="2" precision="I32" />
			</input>
			<output>
				<port id="3" precision="I32">
					<dim>4</dim>
				</port>
			</output>
		</layer>
		<layer id="86" name="Constant_356" type="Const" version="opset1">
			<data element_type="i32" shape="1" offset="807" size="4" />
			<output>
				<port id="0" precision="I32">
					<dim>1</dim>
				</port>
			</output>
		</layer>
		<layer id="87" name="Constant_357" type="Const" version="opset1">
			<data element_type="i32" shape="" offset="5" size="4" />
			<output>
				<port id="0" precision="I32" />
			</output>
		</layer>
		<layer id="88" name="Gather_359" type="Gather" version="opset8">
			<data batch_dims="0" />
			<input>
				<port id="0" precision="I32">
					<dim>4</dim>
				</port>
				<port id="1" precision="I32">
					<dim>1</dim>
				</port>
				<port id="2" precision="I32" />
			</input>
			<output>
				<port id="3" precision="I32">
					<dim>1</dim>
				</port>
			</output>
		</layer>
		<layer id="89" name="Transpose_1800" type="ReverseSequence" version="opset1">
			<data batch_axis="0" seq_axis="3" />
			<input>
				<port id="0" precision="FP32">
					<dim>1</dim>
					<dim>-1</dim>
					<dim>128</dim>
					<dim>748</dim>
				</port>
				<port id="1" precision="I32">
					<dim>1</dim>
				</port>
			</input>
			<output>
				<port id="2" precision="FP32">
					<dim>1</dim>
					<dim>-1</dim>
					<dim>128</dim>
					<dim>748</dim>
				</port>
			</output>
		</layer>
		<layer id="90" name="Constant_1802" type="Const" version="opset1">
			<data element_type="i32" shape="1" offset="5" size="4" />
			<output>
				<port id="0" precision="I32">
					<dim>1</dim>
				</port>
			</output>
		</layer>
		<layer id="91" name="Transpose_1804" type="Squeeze" version="opset1">
			<input>
				<port id="0" precision="FP32">
					<dim>1</dim>
					<dim>-1</dim>
					<dim>128</dim>
					<dim>748</dim>
				</port>
				<port id="1" precision="I32">
					<dim>1</dim>
				</port>
			</input>
			<output>
				<port id="2" precision="FP32">
					<dim>-1</dim>
					<dim>128</dim>
					<dim>748</dim>
				</port>
			</output>
		</layer>
		<layer id="92" name="Constant_1803" type="Const" version="opset1">
			<data element_type="i64" shape="3" offset="50819" size="24" />
			<output>
				<port id="0" precision="I64">
					<dim>3</dim>
				</port>
			</output>
		</layer>
		<layer id="93" name="sequential_1/bidirectional_1/backward_lstm_1/ReverseV2" type="Transpose" version="opset1">
			<input>
				<port id="0" precision="FP32">
					<dim>-1</dim>
					<dim>128</dim>
					<dim>748</dim>
				</port>
				<port id="1" precision="I64">
					<dim>3</dim>
				</port>
			</input>
			<output>
				<port id="2" precision="FP32">
					<dim>748</dim>
					<dim>-1</dim>
					<dim>128</dim>
				</port>
			</output>
		</layer>
		<layer id="94" name="sequential_1/bidirectional_1/backward_lstm_1/while" type="Loop" version="opset5">
			<port_map>
				<input external_port_id="2" internal_layer_id="5" />
				<input external_port_id="3" internal_layer_id="4" />
				<input external_port_id="4" internal_layer_id="3" />
				<input external_port_id="5" internal_layer_id="2" />
				<input external_port_id="6" internal_layer_id="1" />
				<input external_port_id="7" internal_layer_id="0" />
				<output external_port_id="8" internal_layer_id="53" />
				<output external_port_id="-1" internal_layer_id="15" purpose="execution_condition" />
			</port_map>
			<back_edges>
				<edge from-layer="55" to-layer="5" />
				<edge from-layer="54" to-layer="4" />
				<edge from-layer="53" to-layer="3" />
				<edge from-layer="40" to-layer="2" />
				<edge from-layer="36" to-layer="1" />
			</back_edges>
			<input>
				<port id="0" precision="I32" />
				<port id="1" precision="BOOL" />
				<port id="2" precision="I32" />
				<port id="3" precision="I32" />
				<port id="4" precision="FP32">
					<dim>1</dim>
					<dim>1</dim>
					<dim>1</dim>
				</port>
				<port id="5" precision="FP32">
					<dim>-1</dim>
					<dim>64</dim>
				</port>
				<port id="6" precision="FP32">
					<dim>-1</dim>
					<dim>64</dim>
				</port>
				<port id="7" precision="FP32">
					<dim>748</dim>
					<dim>-1</dim>
					<dim>128</dim>
				</port>
			</input>
			<output>
				<port id="8" precision="FP32">
					<dim>1</dim>
					<dim>-1</dim>
					<dim>64</dim>
				</port>
			</output>
			<body>
				<layers>
					<layer id="5" name="sequential_1_bidirectional_1_backward_lstm_1_while_sequential_1_bidirectional_1_backward_lstm_1_while_loop_counter" type="Parameter" version="opset1">
						<data shape="" element_type="i32" />
						<output>
							<port id="0" precision="I32" />
						</output>
					</layer>
					<layer id="4" name="sequential_1_bidirectional_1_backward_lstm_1_while_placeholder" type="Parameter" version="opset1">
						<data shape="" element_type="i32" />
						<output>
							<port id="0" precision="I32" />
						</output>
					</layer>
					<layer id="3" name="sequential_1_bidirectional_1_backward_lstm_1_while_placeholder_1" type="Parameter" version="opset1">
						<data shape="1,?,?" element_type="f32" />
						<output>
							<port id="0" precision="FP32">
								<dim>1</dim>
								<dim>-1</dim>
								<dim>-1</dim>
							</port>
						</output>
					</layer>
					<layer id="2" name="sequential_1_bidirectional_1_backward_lstm_1_while_placeholder_2" type="Parameter" version="opset1">
						<data shape="?,64" element_type="f32" />
						<output>
							<port id="0" precision="FP32">
								<dim>-1</dim>
								<dim>64</dim>
							</port>
						</output>
					</layer>
					<layer id="1" name="sequential_1_bidirectional_1_backward_lstm_1_while_placeholder_3" type="Parameter" version="opset1">
						<data shape="?,64" element_type="f32" />
						<output>
							<port id="0" precision="FP32">
								<dim>-1</dim>
								<dim>64</dim>
							</port>
						</output>
					</layer>
					<layer id="0" name="sequential_1_bidirectional_1_backward_lstm_1_while_tensorarrayv2read_tensorlistgetitem_sequential_1_bidirectional_1_backward_lstm_1_tensorarrayunstack_tensorlistfromtensor_0" type="Parameter" version="opset1">
						<data shape="748,?,128" element_type="f32" />
						<output>
							<port id="0" precision="FP32">
								<dim>748</dim>
								<dim>-1</dim>
								<dim>128</dim>
							</port>
						</output>
					</layer>
					<layer id="6" name="sequential_1/bidirectional_1/backward_lstm_1/while/add_1/y" type="Const" version="opset1">
						<data element_type="i32" shape="" offset="807" size="4" />
						<output>
							<port id="0" precision="I32" />
						</output>
					</layer>
					<layer id="7" name="sequential_1/bidirectional_1/backward_lstm_1/while/add_1" type="Add" version="opset1">
						<data auto_broadcast="numpy" />
						<input>
							<port id="0" precision="I32" />
							<port id="1" precision="I32" />
						</input>
						<output>
							<port id="2" precision="I32" />
						</output>
					</layer>
					<layer id="8" name="sequential_1/bidirectional_1/backward_lstm_1/Max" type="Const" version="opset1">
						<data element_type="i32" shape="" offset="50843" size="4" />
						<output>
							<port id="0" precision="I32" />
						</output>
					</layer>
					<layer id="9" name="sequential_1/bidirectional_1/backward_lstm_1/while/Less_1" type="Less" version="opset1">
						<data auto_broadcast="numpy" />
						<input>
							<port id="0" precision="I32" />
							<port id="1" precision="I32" />
						</input>
						<output>
							<port id="2" precision="BOOL" />
						</output>
					</layer>
					<layer id="10" name="sequential_1/bidirectional_1/backward_lstm_1/while/add/y" type="Const" version="opset1">
						<data element_type="i32" shape="" offset="807" size="4" />
						<output>
							<port id="0" precision="I32" />
						</output>
					</layer>
					<layer id="11" name="sequential_1/bidirectional_1/backward_lstm_1/while/add" type="Add" version="opset1">
						<data auto_broadcast="numpy" />
						<input>
							<port id="0" precision="I32" />
							<port id="1" precision="I32" />
						</input>
						<output>
							<port id="2" precision="I32" />
						</output>
					</layer>
					<layer id="12" name="sequential_1/bidirectional_1/backward_lstm_1/while/Less/y" type="Const" version="opset1">
						<data element_type="i32" shape="" offset="50843" size="4" />
						<output>
							<port id="0" precision="I32" />
						</output>
					</layer>
					<layer id="13" name="sequential_1/bidirectional_1/backward_lstm_1/while/Less" type="Less" version="opset1">
						<data auto_broadcast="numpy" />
						<input>
							<port id="0" precision="I32" />
							<port id="1" precision="I32" />
						</input>
						<output>
							<port id="2" precision="BOOL" />
						</output>
					</layer>
					<layer id="14" name="sequential_1/bidirectional_1/backward_lstm_1/while/LogicalAnd_1" type="LogicalAnd" version="opset1">
						<data auto_broadcast="numpy" />
						<input>
							<port id="0" precision="BOOL" />
							<port id="1" precision="BOOL" />
						</input>
						<output>
							<port id="2" precision="BOOL" />
						</output>
					</layer>
					<layer id="16" name="Constant_1640" type="Const" version="opset1">
						<data element_type="i32" shape="1" offset="5" size="4" />
						<output>
							<port id="0" precision="I32">
								<dim>1</dim>
							</port>
						</output>
					</layer>
					<layer id="17" name="Gather_1641" type="Gather" version="opset8">
						<data batch_dims="0" />
						<input>
							<port id="0" precision="FP32">
								<dim>748</dim>
								<dim>-1</dim>
								<dim>128</dim>
							</port>
							<port id="1" precision="I32" />
							<port id="2" precision="I32">
								<dim>1</dim>
							</port>
						</input>
						<output>
							<port id="3" precision="FP32">
								<dim>-1</dim>
								<dim>128</dim>
							</port>
						</output>
					</layer>
					<layer id="18" name="Transpose_4140_compressed" type="Const" version="opset1">
						<data element_type="f16" shape="256, 128" offset="149696" size="65536" />
						<output>
							<port id="0" precision="FP16">
								<dim>256</dim>
								<dim>128</dim>
							</port>
						</output>
					</layer>
					<layer id="19" name="Transpose_4140" type="Convert" version="opset1">
						<data destination_type="f32" />
						<rt_info>
							<attribute name="decompression" version="0" />
						</rt_info>
						<input>
							<port id="0" precision="FP16">
								<dim>256</dim>
								<dim>128</dim>
							</port>
						</input>
						<output>
							<port id="1" precision="FP32">
								<dim>256</dim>
								<dim>128</dim>
							</port>
						</output>
					</layer>
					<layer id="20" name="sequential_1/bidirectional_1/backward_lstm_1/while/lstm_cell_1/MatMul" type="MatMul" version="opset1">
						<data transpose_a="false" transpose_b="true" />
						<input>
							<port id="0" precision="FP32">
								<dim>-1</dim>
								<dim>128</dim>
							</port>
							<port id="1" precision="FP32">
								<dim>256</dim>
								<dim>128</dim>
							</port>
						</input>
						<output>
							<port id="2" precision="FP32">
								<dim>-1</dim>
								<dim>256</dim>
							</port>
						</output>
					</layer>
					<layer id="21" name="Transpose_4143_compressed" type="Const" version="opset1">
						<data element_type="f16" shape="256, 64" offset="215232" size="32768" />
						<output>
							<port id="0" precision="FP16">
								<dim>256</dim>
								<dim>64</dim>
							</port>
						</output>
					</layer>
					<layer id="22" name="Transpose_4143" type="Convert" version="opset1">
						<data destination_type="f32" />
						<rt_info>
							<attribute name="decompression" version="0" />
						</rt_info>
						<input>
							<port id="0" precision="FP16">
								<dim>256</dim>
								<dim>64</dim>
							</port>
						</input>
						<output>
							<port id="1" precision="FP32">
								<dim>256</dim>
								<dim>64</dim>
							</port>
						</output>
					</layer>
					<layer id="23" name="sequential_1/bidirectional_1/backward_lstm_1/while/lstm_cell_1/MatMul_1" type="MatMul" version="opset1">
						<data transpose_a="false" transpose_b="true" />
						<input>
							<port id="0" precision="FP32">
								<dim>-1</dim>
								<dim>64</dim>
							</port>
							<port id="1" precision="FP32">
								<dim>256</dim>
								<dim>64</dim>
							</port>
						</input>
						<output>
							<port id="2" precision="FP32">
								<dim>-1</dim>
								<dim>256</dim>
							</port>
						</output>
					</layer>
					<layer id="24" name="sequential_1/bidirectional_1/backward_lstm_1/while/lstm_cell_1/Add" type="Add" version="opset1">
						<data auto_broadcast="numpy" />
						<input>
							<port id="0" precision="FP32">
								<dim>-1</dim>
								<dim>256</dim>
							</port>
							<port id="1" precision="FP32">
								<dim>-1</dim>
								<dim>256</dim>
							</port>
						</input>
						<output>
							<port id="2" precision="FP32">
								<dim>-1</dim>
								<dim>256</dim>
							</port>
						</output>
					</layer>
					<layer id="25" name="Constant_4314_compressed" type="Const" version="opset1">
						<data element_type="f16" shape="1, 256" offset="248000" size="512" />
						<output>
							<port id="0" precision="FP16">
								<dim>1</dim>
								<dim>256</dim>
							</port>
						</output>
					</layer>
					<layer id="26" name="Constant_4314" type="Convert" version="opset1">
						<data destination_type="f32" />
						<rt_info>
							<attribute name="decompression" version="0" />
						</rt_info>
						<input>
							<port id="0" precision="FP16">
								<dim>1</dim>
								<dim>256</dim>
							</port>
						</input>
						<output>
							<port id="1" precision="FP32">
								<dim>1</dim>
								<dim>256</dim>
							</port>
						</output>
					</layer>
					<layer id="27" name="sequential_1/bidirectional_1/backward_lstm_1/while/lstm_cell_1/BiasAdd" type="Add" version="opset1">
						<data auto_broadcast="numpy" />
						<input>
							<port id="0" precision="FP32">
								<dim>-1</dim>
								<dim>256</dim>
							</port>
							<port id="1" precision="FP32">
								<dim>1</dim>
								<dim>256</dim>
							</port>
						</input>
						<output>
							<port id="2" precision="FP32">
								<dim>-1</dim>
								<dim>256</dim>
							</port>
						</output>
					</layer>
					<layer id="28" name="sequential_1/bidirectional_1/backward_lstm_1/while/lstm_cell_1/split/split_dim" type="Const" version="opset1">
						<data element_type="i32" shape="" offset="807" size="4" />
						<output>
							<port id="0" precision="I32" />
						</output>
					</layer>
					<layer id="29" name="sequential_1/bidirectional_1/backward_lstm_1/while/lstm_cell_1/split" type="Split" version="opset1">
						<data num_splits="4" />
						<input>
							<port id="0" precision="FP32">
								<dim>-1</dim>
								<dim>256</dim>
							</port>
							<port id="1" precision="I32" />
						</input>
						<output>
							<port id="2" precision="FP32">
								<dim>-1</dim>
								<dim>64</dim>
							</port>
							<port id="3" precision="FP32">
								<dim>-1</dim>
								<dim>64</dim>
							</port>
							<port id="4" precision="FP32">
								<dim>-1</dim>
								<dim>64</dim>
							</port>
							<port id="5" precision="FP32">
								<dim>-1</dim>
								<dim>64</dim>
							</port>
						</output>
					</layer>
					<layer id="30" name="sequential_1/bidirectional_1/backward_lstm_1/while/lstm_cell_1/Sigmoid_1" type="Sigmoid" version="opset1">
						<input>
							<port id="0" precision="FP32">
								<dim>-1</dim>
								<dim>64</dim>
							</port>
						</input>
						<output>
							<port id="1" precision="FP32">
								<dim>-1</dim>
								<dim>64</dim>
							</port>
						</output>
					</layer>
					<layer id="31" name="sequential_1/bidirectional_1/backward_lstm_1/while/lstm_cell_1/mul" type="Multiply" version="opset1">
						<data auto_broadcast="numpy" />
						<input>
							<port id="0" precision="FP32">
								<dim>-1</dim>
								<dim>64</dim>
							</port>
							<port id="1" precision="FP32">
								<dim>-1</dim>
								<dim>64</dim>
							</port>
						</input>
						<output>
							<port id="2" precision="FP32">
								<dim>-1</dim>
								<dim>64</dim>
							</port>
						</output>
					</layer>
					<layer id="32" name="sequential_1/bidirectional_1/backward_lstm_1/while/lstm_cell_1/Sigmoid" type="Sigmoid" version="opset1">
						<input>
							<port id="0" precision="FP32">
								<dim>-1</dim>
								<dim>64</dim>
							</port>
						</input>
						<output>
							<port id="1" precision="FP32">
								<dim>-1</dim>
								<dim>64</dim>
							</port>
						</output>
					</layer>
					<layer id="33" name="sequential_1/bidirectional_1/backward_lstm_1/while/lstm_cell_1/Tanh" type="Tanh" version="opset1">
						<input>
							<port id="0" precision="FP32">
								<dim>-1</dim>
								<dim>64</dim>
							</port>
						</input>
						<output>
							<port id="1" precision="FP32">
								<dim>-1</dim>
								<dim>64</dim>
							</port>
						</output>
					</layer>
					<layer id="34" name="sequential_1/bidirectional_1/backward_lstm_1/while/lstm_cell_1/mul_1" type="Multiply" version="opset1">
						<data auto_broadcast="numpy" />
						<input>
							<port id="0" precision="FP32">
								<dim>-1</dim>
								<dim>64</dim>
							</port>
							<port id="1" precision="FP32">
								<dim>-1</dim>
								<dim>64</dim>
							</port>
						</input>
						<output>
							<port id="2" precision="FP32">
								<dim>-1</dim>
								<dim>64</dim>
							</port>
						</output>
					</layer>
					<layer id="35" name="sequential_1/bidirectional_1/backward_lstm_1/while/lstm_cell_1/add_1" type="Add" version="opset1">
						<data auto_broadcast="numpy" />
						<input>
							<port id="0" precision="FP32">
								<dim>-1</dim>
								<dim>64</dim>
							</port>
							<port id="1" precision="FP32">
								<dim>-1</dim>
								<dim>64</dim>
							</port>
						</input>
						<output>
							<port id="2" precision="FP32">
								<dim>-1</dim>
								<dim>64</dim>
							</port>
						</output>
					</layer>
					<layer id="37" name="sequential_1/bidirectional_1/backward_lstm_1/while/lstm_cell_1/Sigmoid_2" type="Sigmoid" version="opset1">
						<input>
							<port id="0" precision="FP32">
								<dim>-1</dim>
								<dim>64</dim>
							</port>
						</input>
						<output>
							<port id="1" precision="FP32">
								<dim>-1</dim>
								<dim>64</dim>
							</port>
						</output>
					</layer>
					<layer id="38" name="sequential_1/bidirectional_1/backward_lstm_1/while/lstm_cell_1/Tanh_1" type="Tanh" version="opset1">
						<input>
							<port id="0" precision="FP32">
								<dim>-1</dim>
								<dim>64</dim>
							</port>
						</input>
						<output>
							<port id="1" precision="FP32">
								<dim>-1</dim>
								<dim>64</dim>
							</port>
						</output>
					</layer>
					<layer id="39" name="sequential_1/bidirectional_1/backward_lstm_1/while/lstm_cell_1/mul_2" type="Multiply" version="opset1">
						<data auto_broadcast="numpy" />
						<input>
							<port id="0" precision="FP32">
								<dim>-1</dim>
								<dim>64</dim>
							</port>
							<port id="1" precision="FP32">
								<dim>-1</dim>
								<dim>64</dim>
							</port>
						</input>
						<output>
							<port id="2" precision="FP32">
								<dim>-1</dim>
								<dim>64</dim>
							</port>
						</output>
					</layer>
					<layer id="41" name="ShapeOf_1620" type="ShapeOf" version="opset3">
						<data output_type="i32" />
						<input>
							<port id="0" precision="FP32">
								<dim>1</dim>
								<dim>-1</dim>
								<dim>-1</dim>
							</port>
						</input>
						<output>
							<port id="1" precision="I32">
								<dim>3</dim>
							</port>
						</output>
					</layer>
					<layer id="42" name="Constant_1621" type="Const" version="opset1">
						<data element_type="i32" shape="1" offset="5" size="4" />
						<rt_info>
							<attribute name="precise" version="0" />
						</rt_info>
						<output>
							<port id="0" precision="I32">
								<dim>1</dim>
							</port>
						</output>
					</layer>
					<layer id="43" name="Constant_1622" type="Const" version="opset1">
						<data element_type="i32" shape="1" offset="807" size="4" />
						<rt_info>
							<attribute name="precise" version="0" />
						</rt_info>
						<output>
							<port id="0" precision="I32">
								<dim>1</dim>
							</port>
						</output>
					</layer>
					<layer id="44" name="Constant_1624" type="Const" version="opset1">
						<data element_type="i64" shape="1" offset="50807" size="8" />
						<rt_info>
							<attribute name="precise" version="0" />
						</rt_info>
						<output>
							<port id="0" precision="I64">
								<dim>1</dim>
							</port>
						</output>
					</layer>
					<layer id="45" name="Slice_1623" type="Slice" version="opset8">
						<input>
							<port id="0" precision="I32">
								<dim>3</dim>
							</port>
							<port id="1" precision="I32">
								<dim>1</dim>
							</port>
							<port id="2" precision="I32">
								<dim>1</dim>
							</port>
							<port id="3" precision="I32">
								<dim>1</dim>
							</port>
							<port id="4" precision="I64">
								<dim>1</dim>
							</port>
						</input>
						<output>
							<port id="5" precision="I32">
								<dim>1</dim>
							</port>
						</output>
					</layer>
					<layer id="46" name="ShapeOf_1625" type="ShapeOf" version="opset3">
						<data output_type="i32" />
						<input>
							<port id="0" precision="FP32">
								<dim>-1</dim>
								<dim>64</dim>
							</port>
						</input>
						<output>
							<port id="1" precision="I32">
								<dim>2</dim>
							</port>
						</output>
					</layer>
					<layer id="47" name="Concat_1626" type="Concat" version="opset1">
						<data axis="0" />
						<input>
							<port id="0" precision="I32">
								<dim>1</dim>
							</port>
							<port id="1" precision="I32">
								<dim>2</dim>
							</port>
						</input>
						<output>
							<port id="2" precision="I32">
								<dim>3</dim>
							</port>
						</output>
					</layer>
					<layer id="48" name="Constant_1627" type="Const" version="opset1">
						<data element_type="u8" shape="" offset="149663" size="1" />
						<output>
							<port id="0" precision="U8" />
						</output>
					</layer>
					<layer id="49" name="Broadcast_1628" type="Broadcast" version="opset1">
						<data mode="numpy" />
						<input>
							<port id="0" precision="FP32">
								<dim>1</dim>
								<dim>-1</dim>
								<dim>-1</dim>
							</port>
							<port id="1" precision="I32">
								<dim>3</dim>
							</port>
							<port id="2" precision="U8" />
						</input>
						<output>
							<port id="3" precision="FP32">
								<dim>1</dim>
								<dim>-1</dim>
								<dim>64</dim>
							</port>
						</output>
					</layer>
					<layer id="50" name="Reshape_1619" type="Const" version="opset1">
						<data element_type="i32" shape="1" offset="5" size="4" />
						<output>
							<port id="0" precision="I32">
								<dim>1</dim>
							</port>
						</output>
					</layer>
					<layer id="51" name="Unsqueeze_1635" type="Unsqueeze" version="opset1">
						<input>
							<port id="0" precision="FP32">
								<dim>-1</dim>
								<dim>64</dim>
							</port>
							<port id="1" precision="I32">
								<dim>1</dim>
							</port>
						</input>
						<output>
							<port id="2" precision="FP32">
								<dim>1</dim>
								<dim>-1</dim>
								<dim>64</dim>
							</port>
						</output>
					</layer>
					<layer id="52" name="sequential_1/bidirectional_1/backward_lstm_1/while/TensorArrayV2Write/TensorListSetItem" type="ScatterUpdate" version="opset3">
						<input>
							<port id="0" precision="FP32">
								<dim>1</dim>
								<dim>-1</dim>
								<dim>64</dim>
							</port>
							<port id="1" precision="I32">
								<dim>1</dim>
							</port>
							<port id="2" precision="FP32">
								<dim>1</dim>
								<dim>-1</dim>
								<dim>64</dim>
							</port>
							<port id="3" precision="I32">
								<dim>1</dim>
							</port>
						</input>
						<output>
							<port id="4" precision="FP32">
								<dim>1</dim>
								<dim>-1</dim>
								<dim>64</dim>
							</port>
						</output>
					</layer>
					<layer id="55" name="sequential_1_bidirectional_1_backward_lstm_1_while_identity_1" type="Result" version="opset1">
						<input>
							<port id="0" precision="I32" />
						</input>
					</layer>
					<layer id="54" name="sequential_1_bidirectional_1_backward_lstm_1_while_identity_2" type="Result" version="opset1">
						<input>
							<port id="0" precision="I32" />
						</input>
					</layer>
					<layer id="53" name="sequential_1_bidirectional_1_backward_lstm_1_while_identity_3" type="Result" version="opset1">
						<input>
							<port id="0" precision="FP32">
								<dim>1</dim>
								<dim>-1</dim>
								<dim>64</dim>
							</port>
						</input>
					</layer>
					<layer id="40" name="sequential_1_bidirectional_1_backward_lstm_1_while_identity_4" type="Result" version="opset1">
						<input>
							<port id="0" precision="FP32">
								<dim>-1</dim>
								<dim>64</dim>
							</port>
						</input>
					</layer>
					<layer id="36" name="sequential_1_bidirectional_1_backward_lstm_1_while_identity_5" type="Result" version="opset1">
						<input>
							<port id="0" precision="FP32">
								<dim>-1</dim>
								<dim>64</dim>
							</port>
						</input>
					</layer>
					<layer id="15" name="sequential_1_bidirectional_1_backward_lstm_1_while_identity" type="Result" version="opset1">
						<input>
							<port id="0" precision="BOOL" />
						</input>
					</layer>
				</layers>
				<edges>
					<edge from-layer="0" from-port="0" to-layer="17" to-port="0" />
					<edge from-layer="1" from-port="0" to-layer="31" to-port="1" />
					<edge from-layer="2" from-port="0" to-layer="23" to-port="0" />
					<edge from-layer="3" from-port="0" to-layer="41" to-port="0" />
					<edge from-layer="3" from-port="0" to-layer="49" to-port="0" />
					<edge from-layer="4" from-port="0" to-layer="11" to-port="0" />
					<edge from-layer="4" from-port="0" to-layer="17" to-port="1" />
					<edge from-layer="5" from-port="0" to-layer="7" to-port="0" />
					<edge from-layer="6" from-port="0" to-layer="7" to-port="1" />
					<edge from-layer="7" from-port="2" to-layer="9" to-port="0" />
					<edge from-layer="7" from-port="2" to-layer="55" to-port="0" />
					<edge from-layer="8" from-port="0" to-layer="9" to-port="1" />
					<edge from-layer="9" from-port="2" to-layer="14" to-port="0" />
					<edge from-layer="10" from-port="0" to-layer="11" to-port="1" />
					<edge from-layer="11" from-port="2" to-layer="13" to-port="0" />
					<edge from-layer="11" from-port="2" to-layer="54" to-port="0" />
					<edge from-layer="12" from-port="0" to-layer="13" to-port="1" />
					<edge from-layer="13" from-port="2" to-layer="14" to-port="1" />
					<edge from-layer="14" from-port="2" to-layer="15" to-port="0" />
					<edge from-layer="16" from-port="0" to-layer="17" to-port="2" />
					<edge from-layer="17" from-port="3" to-layer="20" to-port="0" />
					<edge from-layer="18" from-port="0" to-layer="19" to-port="0" />
					<edge from-layer="19" from-port="1" to-layer="20" to-port="1" />
					<edge from-layer="20" from-port="2" to-layer="24" to-port="0" />
					<edge from-layer="21" from-port="0" to-layer="22" to-port="0" />
					<edge from-layer="22" from-port="1" to-layer="23" to-port="1" />
					<edge from-layer="23" from-port="2" to-layer="24" to-port="1" />
					<edge from-layer="24" from-port="2" to-layer="27" to-port="0" />
					<edge from-layer="25" from-port="0" to-layer="26" to-port="0" />
					<edge from-layer="26" from-port="1" to-layer="27" to-port="1" />
					<edge from-layer="27" from-port="2" to-layer="29" to-port="0" />
					<edge from-layer="28" from-port="0" to-layer="29" to-port="1" />
					<edge from-layer="29" from-port="5" to-layer="37" to-port="0" />
					<edge from-layer="29" from-port="3" to-layer="30" to-port="0" />
					<edge from-layer="29" from-port="2" to-layer="32" to-port="0" />
					<edge from-layer="29" from-port="4" to-layer="33" to-port="0" />
					<edge from-layer="30" from-port="1" to-layer="31" to-port="0" />
					<edge from-layer="31" from-port="2" to-layer="35" to-port="0" />
					<edge from-layer="32" from-port="1" to-layer="34" to-port="0" />
					<edge from-layer="33" from-port="1" to-layer="34" to-port="1" />
					<edge from-layer="34" from-port="2" to-layer="35" to-port="1" />
					<edge from-layer="35" from-port="2" to-layer="36" to-port="0" />
					<edge from-layer="35" from-port="2" to-layer="38" to-port="0" />
					<edge from-layer="37" from-port="1" to-layer="39" to-port="0" />
					<edge from-layer="38" from-port="1" to-layer="39" to-port="1" />
					<edge from-layer="39" from-port="2" to-layer="40" to-port="0" />
					<edge from-layer="39" from-port="2" to-layer="51" to-port="0" />
					<edge from-layer="39" from-port="2" to-layer="46" to-port="0" />
					<edge from-layer="41" from-port="1" to-layer="45" to-port="0" />
					<edge from-layer="42" from-port="0" to-layer="45" to-port="1" />
					<edge from-layer="42" from-port="0" to-layer="52" to-port="3" />
					<edge from-layer="42" from-port="0" to-layer="51" to-port="1" />
					<edge from-layer="43" from-port="0" to-layer="45" to-port="2" />
					<edge from-layer="43" from-port="0" to-layer="45" to-port="3" />
					<edge from-layer="44" from-port="0" to-layer="45" to-port="4" />
					<edge from-layer="45" from-port="5" to-layer="47" to-port="0" />
					<edge from-layer="46" from-port="1" to-layer="47" to-port="1" />
					<edge from-layer="47" from-port="2" to-layer="49" to-port="1" />
					<edge from-layer="48" from-port="0" to-layer="49" to-port="2" />
					<edge from-layer="49" from-port="3" to-layer="52" to-port="0" />
					<edge from-layer="50" from-port="0" to-layer="52" to-port="1" />
					<edge from-layer="51" from-port="2" to-layer="52" to-port="2" />
					<edge from-layer="52" from-port="4" to-layer="53" to-port="0" />
				</edges>
				<rt_info />
			</body>
		</layer>
		<layer id="95" name="sequential_1/bidirectional_1/backward_lstm_1/strided_slice_3/stack" type="Const" version="opset1">
			<data element_type="i32" shape="1" offset="0" size="4" />
			<rt_info>
				<attribute name="precise" version="0" />
			</rt_info>
			<output>
				<port id="0" precision="I32">
					<dim>1</dim>
				</port>
			</output>
		</layer>
		<layer id="96" name="sequential_1/bidirectional_1/backward_lstm_1/strided_slice_3/stack_1" type="Const" version="opset1">
			<data element_type="i32" shape="1" offset="5" size="4" />
			<rt_info>
				<attribute name="precise" version="0" />
			</rt_info>
			<output>
				<port id="0" precision="I32">
					<dim>1</dim>
				</port>
			</output>
		</layer>
		<layer id="97" name="sequential_1/bidirectional_1/backward_lstm_1/strided_slice_3/stack_2" type="Const" version="opset1">
			<data element_type="i32" shape="1" offset="807" size="4" />
			<rt_info>
				<attribute name="precise" version="0" />
			</rt_info>
			<output>
				<port id="0" precision="I32">
					<dim>1</dim>
				</port>
			</output>
		</layer>
		<layer id="98" name="sequential_1/bidirectional_1/backward_lstm_1/strided_slice_3" type="StridedSlice" version="opset1">
			<data begin_mask="0" end_mask="0" new_axis_mask="0" shrink_axis_mask="1" ellipsis_mask="0" />
			<input>
				<port id="0" precision="FP32">
					<dim>1</dim>
					<dim>-1</dim>
					<dim>64</dim>
				</port>
				<port id="1" precision="I32">
					<dim>1</dim>
				</port>
				<port id="2" precision="I32">
					<dim>1</dim>
				</port>
				<port id="3" precision="I32">
					<dim>1</dim>
				</port>
			</input>
			<output>
				<port id="4" precision="FP32">
					<dim>-1</dim>
					<dim>64</dim>
				</port>
			</output>
		</layer>
		<layer id="99" name="sequential_1/bidirectional_1/concat" type="Concat" version="opset1">
			<data axis="1" />
			<input>
				<port id="0" precision="FP32">
					<dim>-1</dim>
					<dim>64</dim>
				</port>
				<port id="1" precision="FP32">
					<dim>-1</dim>
					<dim>64</dim>
				</port>
			</input>
			<output>
				<port id="2" precision="FP32">
					<dim>-1</dim>
					<dim>128</dim>
				</port>
			</output>
		</layer>
		<layer id="100" name="Transpose_4168_compressed" type="Const" version="opset1">
			<data element_type="f16" shape="64, 128" offset="248512" size="16384" />
			<output>
				<port id="0" precision="FP16">
					<dim>64</dim>
					<dim>128</dim>
				</port>
			</output>
		</layer>
		<layer id="101" name="Transpose_4168" type="Convert" version="opset1">
			<data destination_type="f32" />
			<rt_info>
				<attribute name="decompression" version="0" />
			</rt_info>
			<input>
				<port id="0" precision="FP16">
					<dim>64</dim>
					<dim>128</dim>
				</port>
			</input>
			<output>
				<port id="1" precision="FP32">
					<dim>64</dim>
					<dim>128</dim>
				</port>
			</output>
		</layer>
		<layer id="102" name="sequential_1/dense_1/MatMul" type="MatMul" version="opset1">
			<data transpose_a="false" transpose_b="true" />
			<input>
				<port id="0" precision="FP32">
					<dim>-1</dim>
					<dim>128</dim>
				</port>
				<port id="1" precision="FP32">
					<dim>64</dim>
					<dim>128</dim>
				</port>
			</input>
			<output>
				<port id="2" precision="FP32">
					<dim>-1</dim>
					<dim>64</dim>
				</port>
			</output>
		</layer>
		<layer id="103" name="Constant_4315_compressed" type="Const" version="opset1">
			<data element_type="f16" shape="1, 64" offset="264896" size="128" />
			<output>
				<port id="0" precision="FP16">
					<dim>1</dim>
					<dim>64</dim>
				</port>
			</output>
		</layer>
		<layer id="104" name="Constant_4315" type="Convert" version="opset1">
			<data destination_type="f32" />
			<rt_info>
				<attribute name="decompression" version="0" />
			</rt_info>
			<input>
				<port id="0" precision="FP16">
					<dim>1</dim>
					<dim>64</dim>
				</port>
			</input>
			<output>
				<port id="1" precision="FP32">
					<dim>1</dim>
					<dim>64</dim>
				</port>
			</output>
		</layer>
		<layer id="105" name="sequential_1/dense_1/BiasAdd" type="Add" version="opset1">
			<data auto_broadcast="numpy" />
			<input>
				<port id="0" precision="FP32">
					<dim>-1</dim>
					<dim>64</dim>
				</port>
				<port id="1" precision="FP32">
					<dim>1</dim>
					<dim>64</dim>
				</port>
			</input>
			<output>
				<port id="2" precision="FP32">
					<dim>-1</dim>
					<dim>64</dim>
				</port>
			</output>
		</layer>
		<layer id="106" name="sequential_1/dense_1/Relu" type="ReLU" version="opset1">
			<input>
				<port id="0" precision="FP32">
					<dim>-1</dim>
					<dim>64</dim>
				</port>
			</input>
			<output>
				<port id="1" precision="FP32">
					<dim>-1</dim>
					<dim>64</dim>
				</port>
			</output>
		</layer>
		<layer id="107" name="Transpose_4173_compressed" type="Const" version="opset1">
			<data element_type="f16" shape="5, 64" offset="265024" size="640" />
			<output>
				<port id="0" precision="FP16">
					<dim>5</dim>
					<dim>64</dim>
				</port>
			</output>
		</layer>
		<layer id="108" name="Transpose_4173" type="Convert" version="opset1">
			<data destination_type="f32" />
			<rt_info>
				<attribute name="decompression" version="0" />
			</rt_info>
			<input>
				<port id="0" precision="FP16">
					<dim>5</dim>
					<dim>64</dim>
				</port>
			</input>
			<output>
				<port id="1" precision="FP32">
					<dim>5</dim>
					<dim>64</dim>
				</port>
			</output>
		</layer>
		<layer id="109" name="sequential_1/dense_1_2/MatMul" type="MatMul" version="opset1">
			<data transpose_a="false" transpose_b="true" />
			<input>
				<port id="0" precision="FP32">
					<dim>-1</dim>
					<dim>64</dim>
				</port>
				<port id="1" precision="FP32">
					<dim>5</dim>
					<dim>64</dim>
				</port>
			</input>
			<output>
				<port id="2" precision="FP32">
					<dim>-1</dim>
					<dim>5</dim>
				</port>
			</output>
		</layer>
		<layer id="110" name="Constant_4316_compressed" type="Const" version="opset1">
			<data element_type="f16" shape="1, 5" offset="265664" size="10" />
			<output>
				<port id="0" precision="FP16">
					<dim>1</dim>
					<dim>5</dim>
				</port>
			</output>
		</layer>
		<layer id="111" name="Constant_4316" type="Convert" version="opset1">
			<data destination_type="f32" />
			<rt_info>
				<attribute name="decompression" version="0" />
			</rt_info>
			<input>
				<port id="0" precision="FP16">
					<dim>1</dim>
					<dim>5</dim>
				</port>
			</input>
			<output>
				<port id="1" precision="FP32">
					<dim>1</dim>
					<dim>5</dim>
				</port>
			</output>
		</layer>
		<layer id="112" name="sequential_1/dense_1_2/BiasAdd" type="Add" version="opset1">
			<data auto_broadcast="numpy" />
			<input>
				<port id="0" precision="FP32">
					<dim>-1</dim>
					<dim>5</dim>
				</port>
				<port id="1" precision="FP32">
					<dim>1</dim>
					<dim>5</dim>
				</port>
			</input>
			<output>
				<port id="2" precision="FP32">
					<dim>-1</dim>
					<dim>5</dim>
				</port>
			</output>
		</layer>
		<layer id="113" name="sequential_1/dense_1_2/Softmax" type="SoftMax" version="opset8">
			<data axis="-1" />
			<input>
				<port id="0" precision="FP32">
					<dim>-1</dim>
					<dim>5</dim>
				</port>
			</input>
			<output>
				<port id="1" precision="FP32" names="output_0">
					<dim>-1</dim>
					<dim>5</dim>
				</port>
			</output>
		</layer>
		<layer id="114" name="output_0" type="Result" version="opset1">
			<input>
				<port id="0" precision="FP32">
					<dim>-1</dim>
					<dim>5</dim>
				</port>
			</input>
		</layer>
	</layers>
	<edges>
		<edge from-layer="0" from-port="0" to-layer="10" to-port="0" />
		<edge from-layer="1" from-port="0" to-layer="72" to-port="0" />
		<edge from-layer="2" from-port="0" to-layer="72" to-port="1" />
		<edge from-layer="3" from-port="0" to-layer="72" to-port="2" />
		<edge from-layer="4" from-port="0" to-layer="72" to-port="3" />
		<edge from-layer="5" from-port="0" to-layer="6" to-port="0" />
		<edge from-layer="6" from-port="1" to-layer="72" to-port="4" />
		<edge from-layer="7" from-port="0" to-layer="8" to-port="0" />
		<edge from-layer="8" from-port="1" to-layer="69" to-port="0" />
		<edge from-layer="9" from-port="0" to-layer="10" to-port="1" />
		<edge from-layer="10" from-port="2" to-layer="12" to-port="0" />
		<edge from-layer="11" from-port="0" to-layer="12" to-port="1" />
		<edge from-layer="12" from-port="2" to-layer="15" to-port="0" />
		<edge from-layer="13" from-port="0" to-layer="14" to-port="0" />
		<edge from-layer="14" from-port="1" to-layer="15" to-port="1" />
		<edge from-layer="15" from-port="2" to-layer="17" to-port="0" />
		<edge from-layer="16" from-port="0" to-layer="17" to-port="1" />
		<edge from-layer="17" from-port="2" to-layer="20" to-port="0" />
		<edge from-layer="18" from-port="0" to-layer="19" to-port="0" />
		<edge from-layer="19" from-port="1" to-layer="20" to-port="1" />
		<edge from-layer="20" from-port="2" to-layer="21" to-port="0" />
		<edge from-layer="21" from-port="1" to-layer="24" to-port="0" />
		<edge from-layer="22" from-port="0" to-layer="23" to-port="0" />
		<edge from-layer="23" from-port="1" to-layer="24" to-port="1" />
		<edge from-layer="24" from-port="2" to-layer="27" to-port="0" />
		<edge from-layer="25" from-port="0" to-layer="26" to-port="0" />
		<edge from-layer="26" from-port="1" to-layer="27" to-port="1" />
		<edge from-layer="27" from-port="2" to-layer="29" to-port="0" />
		<edge from-layer="28" from-port="0" to-layer="29" to-port="1" />
		<edge from-layer="29" from-port="2" to-layer="31" to-port="0" />
		<edge from-layer="30" from-port="0" to-layer="31" to-port="1" />
		<edge from-layer="31" from-port="2" to-layer="32" to-port="0" />
		<edge from-layer="32" from-port="1" to-layer="34" to-port="0" />
		<edge from-layer="33" from-port="0" to-layer="34" to-port="1" />
		<edge from-layer="34" from-port="2" to-layer="36" to-port="0" />
		<edge from-layer="35" from-port="0" to-layer="36" to-port="1" />
		<edge from-layer="36" from-port="2" to-layer="38" to-port="0" />
		<edge from-layer="37" from-port="0" to-layer="38" to-port="1" />
		<edge from-layer="38" from-port="2" to-layer="41" to-port="0" />
		<edge from-layer="39" from-port="0" to-layer="40" to-port="0" />
		<edge from-layer="40" from-port="1" to-layer="41" to-port="1" />
		<edge from-layer="41" from-port="2" to-layer="43" to-port="0" />
		<edge from-layer="42" from-port="0" to-layer="43" to-port="1" />
		<edge from-layer="43" from-port="2" to-layer="46" to-port="0" />
		<edge from-layer="44" from-port="0" to-layer="45" to-port="0" />
		<edge from-layer="45" from-port="1" to-layer="46" to-port="1" />
		<edge from-layer="46" from-port="2" to-layer="47" to-port="0" />
		<edge from-layer="47" from-port="1" to-layer="50" to-port="0" />
		<edge from-layer="48" from-port="0" to-layer="49" to-port="0" />
		<edge from-layer="49" from-port="1" to-layer="50" to-port="1" />
		<edge from-layer="50" from-port="2" to-layer="53" to-port="0" />
		<edge from-layer="51" from-port="0" to-layer="52" to-port="0" />
		<edge from-layer="52" from-port="1" to-layer="53" to-port="1" />
		<edge from-layer="53" from-port="2" to-layer="55" to-port="0" />
		<edge from-layer="54" from-port="0" to-layer="55" to-port="1" />
		<edge from-layer="55" from-port="2" to-layer="57" to-port="0" />
		<edge from-layer="56" from-port="0" to-layer="57" to-port="1" />
		<edge from-layer="57" from-port="2" to-layer="58" to-port="0" />
		<edge from-layer="58" from-port="1" to-layer="60" to-port="0" />
		<edge from-layer="59" from-port="0" to-layer="60" to-port="1" />
		<edge from-layer="60" from-port="2" to-layer="62" to-port="0" />
		<edge from-layer="60" from-port="2" to-layer="71" to-port="0" />
		<edge from-layer="61" from-port="0" to-layer="62" to-port="1" />
		<edge from-layer="62" from-port="2" to-layer="63" to-port="0" />
		<edge from-layer="62" from-port="2" to-layer="89" to-port="0" />
		<edge from-layer="63" from-port="1" to-layer="66" to-port="0" />
		<edge from-layer="63" from-port="1" to-layer="85" to-port="0" />
		<edge from-layer="64" from-port="0" to-layer="66" to-port="1" />
		<edge from-layer="65" from-port="0" to-layer="66" to-port="2" />
		<edge from-layer="66" from-port="3" to-layer="68" to-port="0" />
		<edge from-layer="67" from-port="0" to-layer="68" to-port="1" />
		<edge from-layer="68" from-port="2" to-layer="69" to-port="1" />
		<edge from-layer="69" from-port="2" to-layer="72" to-port="5" />
		<edge from-layer="69" from-port="2" to-layer="72" to-port="6" />
		<edge from-layer="69" from-port="2" to-layer="94" to-port="5" />
		<edge from-layer="69" from-port="2" to-layer="94" to-port="6" />
		<edge from-layer="70" from-port="0" to-layer="71" to-port="1" />
		<edge from-layer="71" from-port="2" to-layer="72" to-port="7" />
		<edge from-layer="72" from-port="8" to-layer="76" to-port="0" />
		<edge from-layer="73" from-port="0" to-layer="76" to-port="1" />
		<edge from-layer="74" from-port="0" to-layer="76" to-port="2" />
		<edge from-layer="75" from-port="0" to-layer="76" to-port="3" />
		<edge from-layer="76" from-port="4" to-layer="99" to-port="0" />
		<edge from-layer="77" from-port="0" to-layer="94" to-port="0" />
		<edge from-layer="78" from-port="0" to-layer="94" to-port="1" />
		<edge from-layer="79" from-port="0" to-layer="94" to-port="2" />
		<edge from-layer="80" from-port="0" to-layer="94" to-port="3" />
		<edge from-layer="81" from-port="0" to-layer="82" to-port="0" />
		<edge from-layer="82" from-port="1" to-layer="94" to-port="4" />
		<edge from-layer="83" from-port="0" to-layer="85" to-port="1" />
		<edge from-layer="84" from-port="0" to-layer="85" to-port="2" />
		<edge from-layer="85" from-port="3" to-layer="88" to-port="0" />
		<edge from-layer="86" from-port="0" to-layer="88" to-port="1" />
		<edge from-layer="87" from-port="0" to-layer="88" to-port="2" />
		<edge from-layer="88" from-port="3" to-layer="89" to-port="1" />
		<edge from-layer="89" from-port="2" to-layer="91" to-port="0" />
		<edge from-layer="90" from-port="0" to-layer="91" to-port="1" />
		<edge from-layer="91" from-port="2" to-layer="93" to-port="0" />
		<edge from-layer="92" from-port="0" to-layer="93" to-port="1" />
		<edge from-layer="93" from-port="2" to-layer="94" to-port="7" />
		<edge from-layer="94" from-port="8" to-layer="98" to-port="0" />
		<edge from-layer="95" from-port="0" to-layer="98" to-port="1" />
		<edge from-layer="96" from-port="0" to-layer="98" to-port="2" />
		<edge from-layer="97" from-port="0" to-layer="98" to-port="3" />
		<edge from-layer="98" from-port="4" to-layer="99" to-port="1" />
		<edge from-layer="99" from-port="2" to-layer="102" to-port="0" />
		<edge from-layer="100" from-port="0" to-layer="101" to-port="0" />
		<edge from-layer="101" from-port="1" to-layer="102" to-port="1" />
		<edge from-layer="102" from-port="2" to-layer="105" to-port="0" />
		<edge from-layer="103" from-port="0" to-layer="104" to-port="0" />
		<edge from-layer="104" from-port="1" to-layer="105" to-port="1" />
		<edge from-layer="105" from-port="2" to-layer="106" to-port="0" />
		<edge from-layer="106" from-port="1" to-layer="109" to-port="0" />
		<edge from-layer="107" from-port="0" to-layer="108" to-port="0" />
		<edge from-layer="108" from-port="1" to-layer="109" to-port="1" />
		<edge from-layer="109" from-port="2" to-layer="112" to-port="0" />
		<edge from-layer="110" from-port="0" to-layer="111" to-port="0" />
		<edge from-layer="111" from-port="1" to-layer="112" to-port="1" />
		<edge from-layer="112" from-port="2" to-layer="113" to-port="0" />
		<edge from-layer="113" from-port="1" to-layer="114" to-port="0" />
	</edges>
	<rt_info>
		<Runtime_version value="2024.6.0-17404-4c0f47d2335-releases/2024/6" />
		<conversion_parameters>
			<input_model value="C:\Users\raish\OneDrive\Desktop\Dossier\Projects\Sommeil_EOG_IA\models/saved_model_temp" />
			<is_python_object value="False" />
		</conversion_parameters>
	</rt_info>
</net>
